ml/saved_models/crypto_gcn_model.pth (torch, 118027 bytes, 8 tensors)

conv1.bias f4 [128]
-0.16630815 -4.8581922e-18 0.45317954 -0.0041795913 -0.38865477 0.22460768 -0.19668 0.0350732
0.062427126 -0.039796963 -0.17065707 -6.3397465e-07 -0.040867873 0.011194234 0.2165372 0.18978511
0.051976413 -0.03159472 -0.018113075 -0.046326805 0.10389862 0.22904783 -0.0057887607 -0.17472315
-0.022031708 -0.09371115 -0.30852222 -0.17353886 -0.18277778 -6.091548e-07 0.09641302 -0.0974885
-0.04158401 0.19095635 -0.00012080194 -0.10135094 -1.5551428e-05 0.43252915 -0.2718319 -0.113666005
-9.892e-42 -0.09062912 -0.07876611 0.11024014 0.073588364 -1.3065873e-06 -0.06641051 -0.37797543
0.16344544 -0.32360718 -0.18651658 -0.029113427 -0.039946046 -0.14760734 0.0082991365 0.112335704
-0.21396756 -0.13722062 -0.0092950985 -0.0063808723 -0.16108 -0.0026471587 0.056125958 -0.19320837
-0.30408797 0.04230541 9.817e-42 -0.16092217 -0.05310099 -0.35403472 -9.871e-42 -0.1457528
-0.1488655 -0.054540537 0.043531127 0.08376243 -0.14496058 -0.3897748 -0.0716455 -9.862e-42
0.18674903 -0.37233973 0.099156484 0.19048196 0.20701765 0.04956426 0.26525176 -0.16915159
-0.00067072967 -6.079041e-27 0.058761165 -0.15863204 -9.839e-42 -0.15182082 0.20182967 -0.10297732
0.04131155 -0.10128032 0.089793764 9.1002325e-23 0.021525497 -0.080396295 -0.062424615 0.18579048
-0.12771815 0.19264427 -9.904e-42 9.86e-42 -0.29388618 -0.0002863132 -0.27579218 -5.2463502e-12
-0.057688206 -2.1350158e-26 0.084462725 0.24282126 0.20266183 0.16314483 0.17419067 -0.07078968
-0.14672026 -0.23938736 -1.5986815e-09 -0.22831321 -0.18910329 0.024440465 -0.029958164 0.12802644
00000000: af4c 2abe 543c b3a2 2607 e83e f4f4 88bb
00000010: c2fd c6be 8eff 653e 7b66 49be eaa8 0f3d
00000020: 96b3 7f3d 2402 23bd bac0 2ebe 682e 2ab5
00000030: 1265 27bd 0568 373c eebb 5d3e 0757 423e
00000040: 38e5 543d 7769 01bd df61 94bc 2dc1 3dbd
00000050: cdc8 d43d 848b 6a3e a5af bdbb a0ea 32be
00000060: d77b b4bc a2eb bfbd a0f6 9dbe 2cb4 31be
00000070: 192a 3bbe cd84 23b5 3074 c53d 0da8 c7bd
00000080: ff53 2abd 108a 433e 0c57 fdb8 1591 cfbd
00000090: 7074 82b7 7674 dd3e 8d2d 8bbe b9c9 e8bd
000000a0: 931b 0080 c39b b9bd 2050 a1bd 95c5 e13d
000000b0: 7fb5 963d ff5d afb5 3c02 88bd ff85 c1be
000000c0: 3e5e 273e d7af a5be 34fe 3ebe 487f eebc
000000d0: 779e 23bd 6126 17be 1af9 073c 4310 e63d
000000e0: 501a 5bbe 9083 0cbe 784a 18bc a316 d1bb
000000f0: 28f2 24be f47b 2dbb 55e4 653d 6ad8 45be
00000100: 6bb1 9bbe 7048 2d3d 5e1b 0000 c8c8 24be
00000110: 6c80 59bd 0a44 b5be 841b 0080 3940 15be
00000120: 3370 18be e665 5fbd b24d 323d a38b ab3d
00000130: 8c70 14be 9090 c7be e0ba 92bd 7e1b 0080
00000140: 233b 3f3e 50a3 bebe 8e12 cb3d b40d 433e
00000150: 6ffc 533e e503 4b3d 14cf 873e 1336 2dbe
00000160: e8d3 2fba cdd0 f093 8caf 703d 7070 22be
00000170: 6d1b 0080 eb76 1bbe 70ac 4e3e c6e5 d2bd
00000180: 4d36 293d 0e6c cfbd cbe5 b73d b607 dc1a
00000190: 3d56 b03c d0a6 a4bd f4b0 7fbd dc3f 3e3e
000001a0: 8cc8 02be 8a44 453e 9c1b 0080 7c1b 0000
000001b0: 4078 96be 4f1c 96b9 a234 8dbe ec96 b8ac
000001c0: 784a 6cbd 1571 d394 cbfa ac3d 23a6 783e
000001d0: 9586 4f3e 700f 273e 0a5f 323e 2efa 90bd
000001e0: d63d 16be f621 75be 9bb8 dbb0 f0ca 69be
000001f0: 4ba4 41be 5f37 c83c d36a f5bc 5d19 033e

conv1.lin.weight f4 [128, 22]
0.19768827 -0.37428054 -0.6153747 0.028106399 -0.00089488877 0.28547758 -0.21407583 -0.7388278
0.17075087 -0.0058589205 -0.13529351 0.30707213 0.14885351 -0.15731888 -0.0006357476 1.0312e-41
1.0045e-41 -1.082e-41 -1.0231e-41 9.867e-42 -0.029657163 0.94940585 -7.01125e-15 -9.888e-42
-7.9173964e-28 -0.00010278157 -0.004011468 -9.837e-42 9.853e-42 9.899e-42 9.911e-42 9.886e-42
9.941e-42 -9.809e-42 3.8941456e-24 -3.074868e-19 1.0584e-41 -9.819e-42 9.928e-42 9.829e-42
1.0046e-41 -1.0043e-41 -5.2578125e-38 -9.867e-42 -0.08150152 0.12806235 0.25453177 -0.18962467
-0.012640372 0.12064245 0.4821725 0.10817236 -0.0013707172 0.12783359 -0.018850535 0.054678738
-0.24114658 0.44902143 1.0124e-41 -9.826e-42 1.0028e-41 -1.017e-41 -9.988e-42 1.186e-41
-0.0099677695 0.0890748 -0.0014818894 -4.3225368e-10 -0.0002479437 -0.022803219 -0.02351936 -1.9708736e-10
-6.9971173e-07 -2.3535327e-14 -1.7626327e-30 2.203748e-27 8.082602e-37 1.0356073e-36 -0.0044120047 -0.00043736506
-9.987e-42 9.966e-42 -1.0915e-41 -9.874e-42 -9.843e-42 -9.871e-42 0.00016826605 2.0681048e-34
-0.6849375 -0.297295 -0.46563238 0.0033638817 0.037636425 -0.42224848 0.06093635 -0.13421078
-0.16504563 0.074018314 -0.0060615903 0.022532273 -0.54514384 -0.4259299 -6.0752486e-06 -9.896e-42
-1.0136e-41 -9.921e-42 1.0077e-41 9.848e-42 0.21737117 0.33013454 0.06036093 -0.08868927
0.054315776 -0.41208282 0.05088451 -0.43455213 0.044153597 -0.28771064 0.2571716 -0.06990957
-0.24987268 0.12275596 -0.15117799 0.124939226 -9.833e-42 -9.952e-42 -9.817e-42 9.854e-42
-9.948e-42 -1.0354e-41 0.44672045 0.34276092 -0.07293702 -0.39782238 -0.18811356 0.02236094
0.019653207 -0.35434398 0.20665236 -0.7751821 0.12611763 0.5162359 -0.0042290846 0.07038296
0.08146393 -0.2006324 1.0588155e-05 -1.1003e-41 1.0115e-41 -1.0349e-41 1.0063e-41 -1.0115e-41
0.19171 0.13849302 0.28974733 0.12846486 0.016154772 -0.06323763 0.010951946 -0.3589459
0.021030013 0.16932203 0.04680421 0.013007447 -0.114952095 -0.0972202 0.36398432 0.05237414
-1.0074e-41 -9.823e-42 9.862e-42 9.843e-42 -1.012e-41 -9.847e-42 -0.54991466 0.2933312
0.019524617 0.03447122 -0.5931321 -0.32908317 0.07594414 0.10653685 0.26713875 -0.044596102
0.1522933 0.21070495 -0.10892522 0.22775373 -0.1031955 -0.001493701 1.0293e-41 1.0304e-41
9.865e-42 -9.906e-42 9.911e-42 -1.0068e-41 -0.09900372 0.17141928 -0.01900831 0.020136192
-0.3470909 -0.36249584 0.09442662 0.28931284 0.24118005 -0.02282271 0.1069848 0.071055904
-0.10560514 0.09000711 -0.09432697 -0.061098084 -9.977e-42 -9.903e-42 1.1678e-41 -9.886e-42
9.865e-42 -9.868e-42 -0.44714063 0.13574868 0.13249852 -0.095299274 0.16788997 0.04204888
-0.018956663 -0.2751734 -0.19618346 0.16064098 -0.051958818 -0.88174134 -0.28062347 -0.01979582
0.07713742 -0.18561074 -6.5459964e-11 9.953e-42 -9.87e-42 -1.1646e-41 -1.203e-41 1.0169e-41
0.17339124 -0.044529885 -1.4295111e-05 -4.4957657e-27 2.6433869e-14 -0.0072616143 -0.019178716 -1.0817076e-09
9.897e-42 -9.843e-42 9.882e-42 9.865e-42 -9.84e-42 1.0267e-41 -1.624273e-08 -2.6340186e-07
00000000: cb6e 4a3e b3a1 bfbe 3289 1dbf 643f e63c
00000010: f896 6aba 1e2a 923e b236 5bbe d223 3dbf
00000020: 51d9 2e3e 30fc bfbb 628a 0abe 8f38 9d3e
00000030: 0e6d 183e 3318 21be 4da8 26ba bf1c 0000
00000040: 001c 0000 291e 0080 851c 0080 811b 0000
00000050: 94f3 f2bc 430c 733f 5e9b fca7 901b 0080
00000060: 8de9 7a92 6f8c d7b8 a272 83bb 6c1b 0080
00000070: 771b 0000 981b 0000 a11b 0000 8f1b 0000
00000080: b61b 0000 581b 0080 c0a5 9618 1782 b5a0
00000090: 811d 0000 5f1b 0080 ad1b 0000 661b 0000
000000a0: 011c 0000 ff1b 0080 9b21 8f81 811b 0080
000000b0: 45ea a6bd c722 033e fd51 823e f82c 42be
000000c0: 9019 4fbc 6413 f73d 50df f63e 7889 dd3d
000000d0: a3a9 b3ba cfe6 023e 706c 9abc d0f6 5f3d
000000e0: 21ef 76be 23e6 e53e 391c 0000 641b 0080
000000f0: f41b 0000 5a1c 0080 d81b 0080 1021 0000
00000100: db4f 23bc d96c b63d f53b c2ba 4ca2 edaf
00000110: 71fe 81b9 d1cd babc acab c0bc 29b3 58af
00000120: d3d3 3bb5 c5fc d3a8 7300 0f8e 5299 2e13
00000130: b284 8903 0f33 b003 9492 90bb 254e e5b9
00000140: d71b 0080 c81b 0000 6d1e 0080 861b 0080
00000150: 701b 0080 841b 0080 9370 3039 fb72 8907
00000160: 1058 2fbf 0d37 98be 5e67 eebe 9274 5c3b
00000170: a728 1a3d f430 d8be 6598 793d 8d6e 09be
00000180: b901 29be ea96 973d 4ea0 c6bb 9a95 b83c
00000190: 8c8e 0bbf 7c13 dabe fdd9 cbb6 961b 0080
000001a0: 411c 0080 a81b 0080 171c 0000 741b 0000
000001b0: 8c96 5e3e 6507 a93e 063d 773d b8a2 b5bd
000001c0: 387a 5e3d 85fc d2be 476c 503d 9e7d debe
000001d0: 67da 343d cf4e 93be ffab 833e c02c 8fbd
000001e0: a0de 7fbe 7a67 fb3d 67ce 1abe 23e0 ff3d
000001f0: 691b 0080 be1b 0080 5e1b 0080 781b 0000
00000200: bb1b 0080 dd1c 0080 8bb8 e43e 5c7e af3e
00000210: 0160 95bd 60af cbbe d7a0 40be 4a2e b73c
00000220: c3ff a03c 936c b5be ad9c 533e 5672 46bf
00000230: fb24 013e 0928 043f 2294 8abb f124 903d
00000240: 90d6 a63d 9472 4dbe c8a3 3137 ac1e 0080
00000250: 321c 0000 d91c 0080 0d1c 0000 321c 0080
00000260: a04f 443e 1dd1 0d3e c359 943e 4b8c 033e
00000270: 0357 843c bb82 81bd ca6f 333c c2c7 b7be
00000280: 2247 ac3c c162 2d3e c5b5 3f3d 301d 553c
00000290: 016c ebbd 621b c7bd 275c ba3e 4486 563d
000002a0: 151c 0080 621b 0080 7e1b 0000 701b 0000
000002b0: 361c 0080 731b 0080 35c7 0cbf 822f 963e
000002c0: 17f2 9f3c b231 0d3d 81d7 17bf 977d a8be
000002d0: 9a88 9b3d fe2f da3d 69c6 883e 67aa 36bd
000002e0: c6f2 1b3e 0ac3 573e 3014 dfbd 4638 693e
000002f0: 2a58 d3bd 4ac8 c3ba b11c 0000 b91c 0000
00000300: 801b 0000 9d1b 0080 a11b 0000 111c 0080
00000310: 76c2 cabd 8988 2f3e 51b7 9bbc a8f4 a43c
00000320: e6b5 b1be 0e99 b9be be62 c13d d020 943e
00000330: e7f7 763e b1f6 babc d91a db3d c285 913d
00000340: 8247 d8bd a655 b83d 802e c1bd fc41 7abd
00000350: d01b 0080 9b1b 0080 8e20 0000 8f1b 0080
00000360: 801b 0000 821b 0080 9eef e4be b401 0b3e
00000370: b1ad 073e 442c c3bd 59eb 2b3e 723b 2c3d
00000380: 014b 9bbc 87e3 8cbe 51e4 48be 127f 243e
00000390: c5d2 54bd cdb9 61bf e1ad 8fbe d82a a2bc
000003a0: 39fa 9d3d be10 3ebe aff2 8fae bf1b 0000
000003b0: 831b 0080 7720 0080 8921 0080 591c 0000
000003c0: 798d 313e f864 36bd 09d5 6fb7 7b18 b293
000003d0: 5a18 ee28 d6f2 edbb af1c 9dbc 34ab 94b0
000003e0: 971b 0000 701b 0080 8c1b 0000 801b 0000
000003f0: 6e1b 0080 9f1c 0000 2486 8bb2 ad69 8db4

conv2.bias f4 [128]
0.061786234 0.095382154 0.066827364 0.1599527 0.18642808 -0.05119404 0.092145376 -0.09870521
0.056904733 0.0970872 0.11423077 -0.09459929 0.16235223 0.11682112 -0.08205487 0.050484948
0.06773505 0.13769764 0.16102652 0.06341155 -0.13413456 -0.29833677 0.16526704 -0.3875947
0.06694451 -0.2295865 -0.00035411687 0.025144016 -0.008945812 0.07552981 0.036219254 0.13115081
0.10685403 0.11652004 -0.105286926 -0.027266745 0.0040643057 -0.07388913 -0.044679444 -0.37873828
0.12344705 -0.00044461113 0.03336112 -0.071767196 0.23491153 0.075885445 0.27414536 -0.051788777
0.12103831 0.26803997 -0.43232813 -0.010055965 0.10936093 -0.1285835 0.20468512 -0.18043792
0.05816445 -0.3583444 -1.4100914e-13 0.188244 0.11582122 0.08834756 0.036763247 0.25360972
0.17225134 -0.027141668 -0.3844498 0.083104655 0.33152726 0.104576424 0.07822877 0.19756967
0.13020335 -0.08302357 0.12126459 -3.1810493e-10 -0.5095181 0.07611255 -0.21073738 0.14477603
-0.18438138 -0.22142892 0.07227486 0.1675387 0.14228575 0.008834335 0.048168942 0.15562174
0.0886088 0.23806505 0.06577049 0.15918067 0.1303191 0.13391371 0.03734373 0.10236572
0.030781625 0.18554597 0.11058654 0.25645372 -0.108085625 0.063880466 0.011735057 0.137479
0.025549265 0.0957686 0.016835127 0.08407664 0.17793372 0.0771394 0.10069621 0.04916733
0.05735572 0.041199915 0.17160316 0.07758995 0.26521254 0.11384486 -0.34686795 0.060535565
0.0619955 -0.12050701 -0.02828554 -0.0024750677 -0.069987945 0.1362587 0.0863493 -6.9765645e-34
00000000: 9013 7d3d b857 c33d c9dc 883d a4ca 233e
00000010: 01e7 3e3e d7b0 51bd b7b6 bc3d f525 cabd
00000020: f014 693d a7d5 c63d d2f1 e93d 46bd c1bd
00000030: aa3f 263e e93f ef3d 620c a8bd 4ec9 4e3d
00000040: adb8 8a3d 9c00 0d3e 23e4 243e eadd 813d
00000050: 925a 09be 99bf 98be c33b 293e d072 c6be
00000060: 341a 893d b918 6bbe c3a8 b9b9 d3fa cd3c
00000070: 7491 12bc 5faf 9a3d a45a 143d 664c 063e
00000080: 49d6 da3d 0fa2 ee3d aca0 d7bd 825e dfbc
00000090: de2d 853b 2f53 97bd cb01 37bd fce9 c1be
000000a0: cfd1 fc3d b21a e9b9 aba5 083d aefa 92bd
000000b0: a68c 703e d469 9b3d c85c 8c3e 7820 54bd
000000c0: efe2 f73d 893c 893e 1d5a ddbe c6c1 24bc
000000d0: a0f8 df3d 65ab 03be fa98 513e b8c4 38be
000000e0: d93d 6e3d eb78 b7be 1ec3 1eaa 09c3 403e
000000f0: ad33 ed3d 91ef b43d 0f95 163d 22d9 813e
00000100: a862 303e 3458 debc 9bd6 c4be c632 aa3d
00000110: f1bd a93e 2a2c d63d 6836 a03d b44f 4a3e
00000120: 0754 053e 4308 aabd 9259 f83d 4ae1 aeaf
00000130: c76f 02bf e6e0 9b3d 8acb 57be 2b40 143e
00000140: 79ce 3cbe 43be 62be d804 943d 448f 2b3e
00000150: 5bb3 113e e3bd 103c cc4c 453d 4e5b 1f3e
00000160: 8878 b53d 53c7 733e aeb2 863d 4200 233e
00000170: 5f72 053e ad20 093e bdf5 183d 1ea5 d13d
00000180: bf29 fc3c c3ff 3d3e 327b e23d e74d 833e
00000190: ff5b ddbd c3d3 823d 6644 403c 4cc7 0c3e
000001a0: b14c d13c 5422 c43d d2e9 893c 6030 ac3d
000001b0: 4234 363e 43fb 9d3d d139 ce3d af63 493d
000001c0: d5ed 6a3d 3ec1 283d bdb8 2f3e 7be7 9e3d
000001d0: f0c9 873e 7e27 e93d ad98 b1be 24f4 773d
000001e0: feee 7d3d 61cc f6bd 14b7 e7bc bf34 22bb
000001f0: d755 8fbd 6787 0b3e e7d7 b03d 0cd6 6788

conv2.lin.weight f4 [128, 128]
-0.18534166 -9.853e-42 0.102103285 -1.8332618e-36 -0.13329148 0.11227602 -0.06671733 0.18639216
0.09955944 0.067131996 -0.047182336 -4.4579426e-07 -0.03112841 0.09533619 0.062982015 0.059865914
0.108596385 -0.09289128 0.04306999 0.1433557 -0.02889908 0.045607883 -0.002793996 0.04177284
-0.05752342 -0.013483655 -0.061500017 -0.13234013 -0.0066007627 -9.815e-42 0.15886413 -0.06520022
0.008733466 0.058962386 2.0991036e-05 -0.024312565 -6.109217e-05 0.0408484 0.024596807 -0.26235744
9.822e-42 0.04020745 0.04646384 0.093863204 0.031624585 -2.3346602e-09 -0.043793984 -0.101859525
0.1354243 -0.023330925 -0.003250671 0.04537145 -0.066994995 0.02765833 -0.013298645 0.0012867883
-0.1427367 -0.056307506 0.008111041 0.00027369108 -0.009659217 0.00020157824 0.106114276 -0.004792068
0.054986283 -0.01518111 -9.874e-42 -0.011783268 -0.026029943 -0.076906435 -9.878e-42 0.005253702
-0.10942972 0.043031033 0.09698871 0.0103544025 -0.08302527 -0.07816764 -0.14704064 9.823e-42
0.017536568 -0.07045649 0.1706634 -0.03530095 -0.051191427 0.067749865 -0.06516104 0.008694423
-0.006188376 3.71985e-29 0.04213166 0.10779078 -1.174e-41 0.001489986 0.0049590976 -0.17508847
0.13280615 -0.13628474 0.0585627 1.133673e-28 0.08378015 -0.049390674 0.015356237 0.042374562
-0.023616066 0.04550459 -1.1195e-41 -1.0045e-41 0.044471115 2.1394823e-21 -0.07358942 -3.4099013e-12
-0.05327425 -9.914e-42 0.11795122 -0.15602177 0.04258617 -0.032285176 0.18776986 -0.06712318
0.02644288 0.058056686 5.2846e-41 0.06490358 -0.06400153 0.059540313 0.06017736 0.022516025
-0.11385079 9.892e-42 0.04842524 -1.3688136e-23 -0.123103954 0.016799286 -0.05656739 0.20660417
0.12211055 0.065261975 0.007917065 -2.3908915e-12 0.026708828 0.019541508 0.1067228 0.13396944
0.12267507 0.010070137 0.08266949 0.1513984 0.04836319 0.11151159 0.007877336 0.015243652
0.0839724 0.05839379 -0.13591798 -0.105303384 -0.037418243 4.603474e-30 0.10575337 -0.0029926351
0.043987155 0.11170263 -0.0002996217 -0.0016697848 -3.9363593e-05 0.026486719 -0.08191738 -0.21874385
-9.9e-42 0.02704453 0.06843125 0.053117093 0.18117712 -3.842788e-11 0.055748638 -0.1391651
0.018834466 -0.045546453 0.014470049 0.0036005506 -0.056841914 0.017655682 0.082935944 -0.0020910273
-0.11431221 -0.1144215 0.013014995 6.703147e-05 0.03836496 -0.00036728245 0.06426732 0.0039771027
0.06910619 -0.044776604 -9.882e-42 0.020540556 -0.051630285 -0.11397805 -1.2097e-41 -0.022957126
0.056560062 0.024072548 0.10091775 0.0036255042 -0.051561754 -0.057551205 0.024773374 -9.953e-42
-0.040600073 -0.05822811 0.06595865 0.040835075 0.045372315 0.1169041 -0.11512697 0.03135276
-0.018110037 2.2234249e-29 -0.027674584 0.010071151 1.084e-41 0.05289777 0.011020963 0.029810661
0.032827977 -0.026688721 0.062105767 3.5072609e-12 0.046004623 0.02332989 -0.0754959 0.07855871
-0.08585566 0.10976137 9.82e-42 -9.827e-42 -0.00047785265 -4.314817e-22 -0.21616289 6.4492075e-13
0.014611359 9.882e-42 0.009671943 0.16550827 0.13340618 0.007476765 0.15144789 0.0007771354
0.052610643 0.039664395 -9.883e-42 -0.03777296 -0.038092934 0.11413826 0.076648764 0.014053706
00000000: 34ca 3dbe 771b 0080 871b d13d e8f4 1b84
00000010: 907d 08be f8f0 e53d 18a3 88bd 96dd 3e3e
00000020: d2e5 cb3d 807c 893d 4442 41bd 7f55 efb4
00000030: 0201 ffbc 9f3f c33d b7fc 803d f635 753d
00000040: c867 de3d c93d bebd 286a 303d d6cb 123e
00000050: c3bd ecbc 55cf 3a3d 791b 37bb ff19 2b3d
00000060: ad9d 6bbd 8cea 5cbc 71e7 7bbd 2c84 07be
00000070: 364b d8bb 5c1b 0080 47ad 223e b187 85bd
00000080: d016 0f3c 8b82 713d e815 b037 252b c7bc
00000090: 9c1e 80b8 a750 273d 3e7f c93c b753 86be
000000a0: 611b 0000 91b0 243d de50 3e3d 5a3b c03d
000000b0: c888 013d c76f 20b1 5261 33bd ba9b d0bd
000000c0: abac 0a3e 7f20 bfbc 3609 55bb 6ad7 393d
000000d0: ac34 89bd b993 e23c 8fe2 59bc 73a9 a83a
000000e0: 9229 12be b3a2 66bd 2ce4 043c 327e 8f39
000000f0: b141 1ebc bf5e 5339 7152 d93d c806 9dbb
00000100: 4c39 613d 31ba 78bc 861b 0080 9c0e 41bc
00000110: bf3c d5bc 1f81 9dbd 891b 0080 3f27 ac3b
00000120: b01c e0bd 4f41 303d 04a2 c63d 83a5 293c
00000130: 2709 aabd 5b16 a0bd d291 16be 621b 0000
00000140: d9a8 8f3c 7e4b 90bd 63c2 2e3e bb97 10bd
00000150: 1aae 51bd 71c0 8a3d 2773 85bd 0e73 0e3c
00000160: dcc7 cabb 6a9e 3c10 3f92 2c3d 6ac1 dc3d
00000170: ba20 0080 a24b c33a ed7f a23b 644a 33be
00000180: 56fe 073e 3a8e 0bbe 71df 6f3d cbb5 0f11
00000190: ed94 ab3d e04d 4abd ba98 7b3c f390 2d3d
000001a0: 7b76 c1bc 0563 3a3d 351f 0080 001c 0080
000001b0: 5827 363d 9ba7 211d 0db6 96bd 52f3 6fac
000001c0: 1a36 5abd a31b 0080 6990 f13d 2cc4 1fbe
000001d0: d66e 2e3d 763d 04bd be46 403e e177 89bd
000001e0: bd9e d83c d9cc 6d3d 5093 0000 2bec 843d
000001f0: 3c13 83bd 8be0 733d 897c 763d 8773 b83c
00000200: 9a2a e9bd 931b 0000 8b59 463d 2f62 8499
00000210: ed1d fcbd a89e 893c 35b3 67bd 0b90 533e
00000220: 1915 fa3d 12a8 853d 94b6 013c 793e 28ac
00000230: 79cc da3c 8315 a03c 7c91 da3d 492f 093e
00000240: 113d fb3d 37fd 243c 9f4e a93d 2f08 1b3e
00000250: 7b18 463d 3060 e43d f10f 013c 83c0 793c
00000260: b9f9 ab3d 542e 6f3d 152e 0bbe 4da9 d7bd
00000270: df43 19bd 35bd ba0e 3995 d83d 1620 44bb
00000280: e02b 343d 59c4 e43d 8b16 9db9 aedc daba
00000290: 561a 25b8 adfa d83c 4dc4 a7bd 63fe 5fbe
000002a0: 991b 0080 7d8c dd3c af25 8c3d 4f91 593d
000002b0: 7f86 393e f201 29ae af58 643d 4c81 0ebe
000002c0: bd4a 9a3c eb8e 3abd c913 6d3c 37f7 6b3b
000002d0: 11d3 68bd a6a2 903c 52da a93d 9e09 09bb
000002e0: 851c eabd d255 eabd d83c 553c 3f93 8c38
000002f0: 9424 1d3d d18f c0b9 969e 833d 5b52 823b
00000300: 8c87 8d3d ac67 37bd 8c1b 0080 ab44 a83c
00000310: 477a 53bd 536d e9bd b921 0080 9510 bcbc
00000320: 86ab 673d cb33 c53c f7ad ce3d de99 6d3b
00000330: 6b32 53bd d0ba 6bbd 88f1 ca3c bf1b 0080
00000340: 434c 26bd 9980 6ebd 5415 873d ae42 273d
00000350: 52d8 393d 6b6b ef3d b0c7 ebbd c06b 003d
00000360: 805b 94bc 697b e10f cfb5 e2bc 7801 253c
00000370: 381e 0000 55ab 583d 4591 343c 7d35 f43c
00000380: a176 063d 4ea2 dabc 9e62 7e3d 32cd 762c
00000390: 586f 3c3d 531e bf3c 989d 9abd 64e3 a03d
000003a0: 18d5 afbd 92ca e03d 601b 0000 651b 0080
000003b0: 4c88 fab9 4868 029c ce59 5dbe 7087 352b
000003c0: 7b64 6f3c 8c1b 0000 1277 1e3c 007b 293e
000003d0: a19b 083e a7ff f43b 2815 1b3e adb8 4b3a
000003e0: 427e 573d 2277 223d 8d1b 0080 d2b7 1abd
000003f0: 5607 1cbd 52c1 e93d 07fa 9c3d 8441 663c

conv3.bias f4 [64]
0.19792037 0.52337307 0.19487399 0.28291458 -0.18267837 -0.032279953 0.20035462 0.20126767
0.31632152 0.08867541 -0.016170012 0.059011698 -0.013832785 0.41570294 0.2679833 0.21101962
-0.0046533165 -0.1594627 0.210392 0.09627826 0.47777665 0.11984459 0.33446681 -0.117388144
0.24344793 0.21963961 0.3216107 0.23715986 -0.12307928 -0.053682312 0.14908169 0.18839338
0.15768863 0.1921704 -1.6054249e-09 0.03840289 -0.07347537 0.026088359 -0.057128154 0.3379687
0.61396277 0.009425102 -0.47867745 0.23884925 0.035877906 0.13465022 -0.11668303 -0.079314426
0.23161738 0.2542683 0.2356942 0.1419686 0.18699978 -2.4732039e-05 0.07088752 0.17967449
0.10641621 -0.07275778 -0.017320687 0.009942213 0.25547045 0.07977157 0.16728999 0.27297643
00000000: a3ab 4a3e c7fb 053f 0c8d 473e 2eda 903e
00000010: 0a10 3bbe fc37 04bd c329 4d3e 1d19 4e3e
00000020: e5f4 a13e 749b b53d f976 84bc 40b6 713d
00000030: e8a2 62bc 04d7 d43e 1b35 893e 8715 583e
00000040: d97a 98bb 314a 23be 0071 573e 892d c53d
00000050: 249f f43e 1571 f53d 3c3f ab3e 3269 f0bd
00000060: 6a4a 793e 35e9 603e 28aa a43e 09da 723e
00000070: fd10 fcbd fce1 5bbd dfa8 183e 32ea 403e
00000080: 2179 213e 51c8 443e dea5 dcb0 594c 1d3d
00000090: 417a 96bd 41b7 d53c 36ff 69bd 3c0a ad3e
000000a0: aa2c 1d3f be6b 1a3c 3615 f5be e694 743e
000000b0: b6f4 123d bfe1 093e 83f7 eebd 9a6f a2bd
000000c0: 1b2d 6d3e 742f 823e d259 713e 3760 113e
000000d0: df7c 3f3e a677 cfb7 7a2d 913d 97fc 373e
000000e0: bef0 d93d 0802 95bd 1de4 8dbc aae4 223c
000000f0: 06cd 823e 475f a33d 114e 2b3e 91c3 8b3e

conv3.lin.weight f4 [64, 128]
0.08237056 0.034620922 -0.115092315 -0.07286085 0.12207601 -0.1284096 0.011318581 -0.008298148
0.006918786 0.01484911 0.009144266 -0.0043173176 0.01279296 0.009705348 0.014950128 0.043011494
0.03483229 0.030856801 0.0055265334 0.2548362 -0.20565219 -0.037446573 -0.10107459 0.020259835
-0.06595394 0.050671402 -3.8778533e-05 -0.026916286 -0.008666157 0.06145374 0.006276411 0.036080506
0.1509457 -0.029497948 -0.008317684 -0.1341943 0.03414453 -0.11890375 -0.097043745 -0.124100305
0.013309697 -1.1075101e-05 0.17503177 -0.0037267767 -0.16436449 -0.039206963 -0.05123491 0.004374399
-0.022270694 -0.04963858 -0.16045065 0.05313903 0.034317087 0.014167594 -0.056857914 -0.10788651
-0.14462705 -0.12424747 6.4230136e-14 0.0063272025 -0.012582044 0.07565673 -0.008039843 0.18178761
-0.17897402 0.01198319 -0.07410313 0.01737261 -0.1145292 0.13647744 0.047224917 0.14315681
-0.06744981 -0.0035388637 0.026861398 -1.040237e-39 -0.107949 0.06319563 0.010612516 -0.14765188
-0.05802953 -0.11375769 -0.052334946 -0.024832845 -0.13598265 -0.0017266317 0.021642812 0.060259957
-0.01704963 0.04625205 -0.01698357 -0.086692095 -0.003965127 0.17088726 -0.027278604 0.040379353
0.12026491 -0.09133524 0.048219826 -0.13926093 -0.047951423 -0.03468547 -0.02317601 -0.018005775
0.11403589 0.020326152 0.030300507 0.01650201 0.15324114 0.0028994358 0.0474851 0.0401902
0.08563656 0.13784896 -0.048883524 0.015744159 -0.06542498 -0.0072811353 -0.07326635 0.0899243
0.013872854 -0.03642116 0.10073657 6.1527964e-05 0.046293654 -0.0097172735 -0.010753571 -9.882e-42
0.16679384 0.20268087 -0.031268533 0.23366335 0.30852106 -0.107699394 -0.22086985 -0.26143527
-0.095656455 -0.15897284 -0.11826947 -0.015026706 -0.051905666 -0.14705156 -0.16333365 0.055424638
0.026280046 -0.3244266 -0.39493966 -0.20076767 -0.057225507 0.041463297 -0.032174155 0.02168758
-0.029951783 -0.15382509 -9.732629e-05 -0.22959879 -0.09563456 -0.011741586 -2.9043209e-05 0.108995676
-0.10955989 -0.08921017 -0.085516065 -0.18335648 -0.33006823 0.04313855 -0.022483084 -0.05766752
-0.2045456 0.0001062661 0.12063007 0.08911055 -0.068507686 -0.021690834 0.17360221 -0.10259049
-0.097784206 0.25477678 0.0070924005 -0.07398067 -0.058757186 0.09411619 -0.04379596 -0.08669803
0.08071506 0.012750513 1.4888942e-14 0.10635488 -0.12522438 -0.058706198 0.07784018 0.3071539
0.20162095 -0.08977971 0.10331706 -0.22760738 0.16723925 -0.16881026 -0.07596801 -0.08348962
-0.18098412 -0.28335443 0.37242 -2.3136454e-21 0.007975773 -0.23288934 -0.18212233 -0.025138924
-0.04815079 -0.061608825 -0.026378892 -0.39071602 0.14645016 0.24527709 -0.17068796 0.18744081
-0.08755333 0.26945964 -0.19119275 0.15948361 -0.02798237 -0.13990678 -0.13392754 0.19349332
0.026217952 0.20775658 -0.09590037 0.15286008 -0.04078575 -0.041609425 -0.20451969 0.039293192
-0.2299664 -0.14621145 -0.07534489 -0.28067443 0.39598736 -0.14594422 0.4207409 -0.04790279
-0.22438861 -0.08212103 0.06104716 -0.027007118 0.48960736 0.013825442 -0.04425561 -0.0008046026
-0.20188236 -0.11587268 -0.09213761 8.823051e-05 -0.087710954 -0.15654229 -0.19110268 9.813e-42
00000000: e5b1 a83d abce 0d3d 85b5 ebbd 1238 95bd
00000010: fd02 fa3d ce7d 03be 9271 393c f5f4 07bc
00000020: fcb6 e23b ae49 733c d5d1 153c 4978 8dbb
00000030: 9099 513c 2e03 1f3c 62f1 743c d22c 303d
00000040: 4eac 0e3d 67c7 fc3c ec17 b53b e479 823e
00000050: 7d96 52be 9461 19bd 3200 cfbd f4f7 a53c
00000060: dc12 87bd d18c 4f3d 22a6 22b8 8b7f dcbc
00000070: 7ffc 0dbc ebb6 7b3d 5aaa cd3b 27c9 133d
00000080: 8291 1a3e aea5 f1bc e546 08bc 3b6a 09be
00000090: 22db 0b3d cf83 f3bd dfbe c6bd 4d28 febd
000000a0: ea10 5a3c 32cf 39b7 873b 333e f03c 74bb
000000b0: 2a4f 28be 7b97 20bd b2db 51bd 1e57 8f3b
000000c0: 0871 b6bc d351 4bbd 2d4d 24be 50a8 593d
000000d0: 1390 0c3d 321f 683c d8e3 68bd 9af3 dcbd
000000e0: 1d19 14be 7575 febd 27a2 9029 6c54 cf3b
000000f0: eb24 4ebc eaf1 9a3d 8cb9 03bc 8826 3a3e
00000100: f744 37be 2455 443c 62c3 97bd 0151 8e3c
00000110: 498e eabd bec0 0b3e ea6e 413d b397 123e
00000120: 2023 8abd 48ec 67bb 6f0c dc3c c253 0b80
00000130: 5e14 ddbd b66c 813d 1ee0 2d3c 0e32 17be
00000140: 5fb0 6dbd cbf9 e8bd 2b5d 56bd 406e cbbc
00000150: 093f 0bbe 2550 e2ba 444c b13c 25d3 763d
00000160: aaab 8bbc ca72 3d3d 2121 8bbc a08b b1bd
00000170: e5ed 81bb 12fd 2e3e 6177 dfbc d264 253d
00000180: 734d f63d f80d bbbd 2782 453d 6b9a 0ebe
00000190: b668 44bd 5a12 0ebd 9edb bdbc d980 93bc
000001a0: a68b e93d 0883 a63c c538 f83c 392f 873c
000001b0: 3feb 1c3e 7604 3e3b bc7f 423d 7b9e 243d
000001c0: 3962 af3d 4728 0d3e 173a 48bd e5f9 803c
000001d0: 88fd 85bd 9796 eebb ab0c 96bd 3b2a b83d
000001e0: f84a 633c 5b2e 15bd fa4e ce3d 9308 8138
000001f0: 6a9e 3d3d 3335 1fbc bf2f 30bc 8c1b 0080
00000200: 01cc 2a3e 938b 4f3e 6f13 00bd 7245 6f3e
00000210: 79f6 9d3e 8091 dcbd b52b 62be d8da 85be
00000220: 88e7 c3bd c7c9 22be 4437 f2bd 9332 76bc
00000230: 099b 54bd af94 16be f040 27be f204 633d
00000240: 4049 d73c 3e1b a6be 8835 cabe 0a96 4dbe
00000250: 4b65 6abd 6bd5 293d 0cc9 03bd 27aa b13c
00000260: 715d f5bc 5384 1dbe a71b ccb8 f21b 6bbe
00000270: 0ddc c3bd c85f 40bc d1a1 f3b7 2039 df3d
00000280: f060 e0bd d2b3 b6bd 0c23 afbd cdc1 3bbe
00000290: b4fe a8be 0cb2 303d 722e b8bc c734 6cbd
000002a0: 6774 51be 2edb de38 e60c f73d 987f b63d
000002b0: c24d 8cbd fab0 b1bc c7c4 313e f61a d2bd
000002c0: 1643 c8bd 1a72 823e 5e67 e83b 2d83 97bd
000002d0: 60ab 70bd fdbf c03d 6463 33bd bd8e b1bd
000002e0: f04d a53d 87e7 503c 901b 8628 96d0 d93d
000002f0: d23a 00be e975 70bd ac6a 9f3d 4743 9d3e
00000300: b975 4e3e 6dde b7bd e597 d33d e911 69be
00000310: c440 2b3e 99dc 2cbe 1e95 9bbd 9bfc aabd
00000320: e753 39be d513 91be d6ad be3e 69d0 2e9d
00000330: d1ac 023c 8b7a 6ebe 477e 3abe 25f0 cdbc
00000340: c339 45bd 8959 7cbd 8c18 d8bc ee0b c8be
00000350: 08f7 153e eb29 7b3e d3c8 2ebe 7cf0 3f3e
00000360: 294f b3bd 9df6 893e 08c8 43be ac4f 233e
00000370: 493b e5bc b943 0fbe 4d24 09be 1d23 463e
00000380: 08c7 d63c 24be 543e 6a67 c4bd 5a87 1c3e
00000390: f50e 27bd a56e 2abd 9c6d 51be e6f1 203d
000003a0: 507c 6bbe 74b8 15be 6c4e 9abd 8fb4 8fbe
000003b0: dbbe ca3e 6772 15be 5a6b d73e b735 44bd
000003c0: 21c6 65be 122f a8bd 960c 7a3d 083e ddbc
000003d0: d1ad fa3e 1b84 623c 5f45 35bd f7eb 52ba
000003e0: 40ba 4ebe a84e edbd a5b2 bcbd 6508 b938
000003f0: cda1 b3bd 9f4c 20be 6cb0 43be 5b1b 0000

classifier.weight f4 [12, 64]
-0.116954915 0.09328717 0.0048628654 -0.76621646 0.108969085 0.051954433 -0.08776291 0.016265552
0.061781853 -0.04701885 0.0574338 0.18461686 0.066343665 0.18427965 0.0015446871 -0.11707407
-0.08276009 0.036295574 0.014915182 -0.005300325 -0.39030597 -0.37003142 0.14463796 0.14418371
-0.3106515 0.06513178 -0.11239697 -0.3606099 0.105848625 0.1196663 -0.039480418 0.01786534
-0.29972088 0.0909621 -6.389276e-05 -0.037775 0.05989057 0.101953745 -0.083293505 -0.27418545
-0.15132482 0.09848784 -0.022021485 0.0070078797 0.09438838 -0.022604497 0.0139467735 -0.025087308
-0.31694633 -0.3575063 0.0791542 -0.2508483 0.0596159 0.0010002422 0.02732719 -0.07992879
0.046235576 0.050402876 0.05381284 0.14556752 -0.020723587 0.11541953 -0.039598253 0.10770587
-0.15132599 0.12130429 0.088355295 -0.84567034 0.12919667 0.08782403 0.061058555 -0.012374417
0.06475278 -0.06827301 0.03789075 0.23591293 0.10891613 0.16482748 0.05947818 -0.099762045
-0.044042375 0.06096976 0.0050899503 0.0041482435 -0.19029921 -0.32230565 0.08938986 0.15584405
-0.16612741 0.01115027 -0.120018 -0.4221509 0.065931074 0.13588761 -0.1001638 0.09267461
-0.16036418 0.10358887 -4.545853e-05 -0.023704845 -0.0048273737 0.09961704 -0.25846082 -0.17822458
0.011405644 0.0025767388 -0.0064525926 -0.03688304 0.06679004 0.031837814 0.005063377 -0.15088016
-0.32727584 -0.40196544 0.07882537 -0.14286065 0.03602741 -0.00096086704 0.022966187 -0.008111022
0.025912547 0.009231149 -0.007847731 0.12787583 0.012003643 0.124841616 -0.20700224 0.08726788
0.19660926 0.14345042 0.09627235 -0.9774028 0.09604834 0.11586291 -0.18085255 0.036192253
0.048645116 0.09626019 0.10580056 0.1051502 -0.017309925 0.21658973 -0.037314523 -0.055918045
-0.026094621 0.013629332 0.025531504 0.275634 -0.16239224 -0.43221277 0.16164376 0.06833256
-0.16277637 0.10948752 -0.070567906 -0.3628739 0.04960399 0.039507657 -0.023289176 0.01477724
-0.26196894 0.10911648 -0.00020210847 0.108159594 0.022764176 0.07778074 -0.13932125 -0.15241966
-0.07773082 0.10936321 0.044255298 0.00500192 0.08818702 0.11035744 0.029394912 0.13757704
-0.1738633 -0.30505344 0.04449679 -0.4214298 -0.010505605 -0.00047778996 -0.0005838266 -0.037757732
0.04984633 -0.0019215996 0.052631654 0.23285636 -0.06422577 0.108741656 0.41375864 0.08709574
0.17763105 -0.06981102 -0.18630515 0.44728172 -0.16345753 0.11341864 -0.27872714 -0.15526268
-0.59942925 0.10475979 0.023908088 -0.26517844 -0.04251527 -0.36246306 -0.58157194 -0.31270993
-0.0057572313 -0.12767917 0.026596997 0.058370385 -0.10207648 -0.04926095 0.03813655 -0.10240508
-0.14236489 0.06790062 -0.40294316 0.09152802 -0.1065936 -0.13723694 -0.082936496 0.25597456
-0.012050333 -0.38268736 4.194957e-10 0.036475066 0.34351015 -0.087648414 0.4324571 -0.07043545
0.37757277 0.024940316 -0.48586413 -0.41189063 -0.29231 -0.019181622 -0.12179237 0.114753045
-0.22399339 0.332721 -0.30426982 0.21267384 0.08708901 -0.00023663139 0.17258744 -0.5149463
0.056908906 -0.27353647 -0.10577376 -0.055654854 0.12493653 -0.2121225 0.12948 0.055903208
00000000: 0f86 efbd 580d bf3d ac58 9f3b c326 44bf
00000010: 2f2b df3d 2cce 543d 0abd b3bd 563f 853c
00000020: f80e 7d3d d696 40bd b43f 6b3d 340c 3d3e
00000030: 30df 873d ceb3 3c3e 1977 ca3a 88c4 efbd
00000040: 1f7e a9bd abaa 143d cf5e 743c 59ae adbb
00000050: 2fd6 c7be c274 bdbe f91b 143e e5a4 133e
00000060: b70d 9fbe d063 853d 6230 e6bd dca1 b8be
00000070: 2ac7 d83d 9b13 f53d 38b6 21bd 555a 923c
00000080: 0475 99be 564a ba3d 2afe 85b8 f5b9 1abd
00000090: d04f 753d 20cd d03d c995 aabd 0962 8cbe
000000a0: e5f4 1abe feb3 c93d 6766 b4bc 5ba2 e53b
000000b0: b24e c13d 112d b9bc 0281 643c e683 cdbc
000000c0: ca46 a2be 110b b7be 991b a23d 306f 80be
000000d0: cd2f 743d 8f1a 833a 45dd df3c b5b1 a3bd
000000e0: 8461 3d3d 3f73 4e3d da6a 5c3d a70f 153e
000000f0: 83c4 a9bc 1361 ec3d c731 22bd e594 dc3d
00000100: 33f5 1abe 626e f83d 9ff3 b43d da7d 58bf
00000110: 224c 043e 16dd b33d 8918 7a3d 11be 4abc
00000120: 1b9d 843d b8d2 8bbd 5533 1b3d 2993 713e
00000130: 6c0f df3d 89c8 283e 649f 733d 0b50 ccbd
00000140: c765 34bd 6dbb 793d 99c9 a63b fded 873b
00000150: ccdd 42be 3f05 a5be 0812 b73d 9595 1f3e
00000160: 4e1d 2abe 9faf 363c ffcb f5bd 2a24 d8be
00000170: df06 873d 1f26 0b3e ae22 cdbd 30cc bd3d
00000180: 8236 24be 6726 d43d baaa 3eb8 aa30 c2bc
00000190: f22e 9ebb 0504 cc3d fa54 84be 8180 36be
000001a0: bdde 3a3c 81de 283b 4570 d3bb ac12 17bd
000001b0: 37c9 883d 5e68 023d afea a53b 5480 1abe
000001c0: b390 a7be 6ace cdbe 326f a13d 104a 12be
000001d0: 7a91 133d b2e2 7bba 9623 bc3c 18e4 04bc
000001e0: 8d46 d43c 3f3e 173c c593 00bc e2f1 023e
000001f0: eeaa 443c f6ac ff3d 65f8 53be 81b9 b23d
00000200: f053 493e abe4 123e 702a c53d 1237 7abf
00000210: feb4 c43d 8949 ed3d 6931 39be 543e 143d
00000220: 1a40 473d 1024 c53d f7ad d83d fd58 d73d
00000230: 8bcd 8dbc b3c9 5d3e 1dd7 18bd 520a 65bd
00000240: 63c4 d5bc 904d 5f3c 7227 d13c e61f 8d3e
00000250: 274a 26be fe4a ddbe f185 253e f1f1 8b3d
00000260: d9ae 26be fe3a e03d e885 90bd 9cca b9be
00000270: 8e2d 4b3d c8d2 213d f1c8 bebc 3d1c 723c
00000280: cb20 86be 7678 df3d 14ed 53b9 c782 dd3d
00000290: f07b ba3c 824b 9f3d 3baa 0ebe e613 1cbe
000002a0: 5631 9fbd d2f9 df3d 0b45 353d 25e7 a33b
000002b0: 659b b43d 1503 e23d 99cd f03c ffe0 0c3e
000002c0: 3909 32be f72f 9cbe 4442 363d a6c5 d7be
000002d0: b31f 2cbc e27f fab9 f10b 19ba daa7 1abd
000002e0: aa2b 4c3d 2fde fbba 4a94 573d e671 6e3e
000002f0: cd88 83bd f2b3 de3d 2cd8 d33e 405f b23d
00000300: eae4 353e 14f9 8ebd c7c6 3ebe 1c02 e53e
00000310: 6961 27be 0848 e83d 53b5 8ebe 2efd 1ebe
00000320: 3274 19bf 4d8c d63d e5da c33c 78c5 87be
00000330: 7e24 2ebd c294 b9be e6e1 14bf 841b a0be
00000340: 28a7 bcbb 54be 02be f2e1 d93c c915 6f3d
00000350: 790d d1bd dac5 49bd 1235 1c3d c1b9 d1bd
00000360: 1ac8 11be 7b0f 8b3d 914e cebe 0b73 bb3d
00000370: bf4d dabd d787 0cbe 9cda a9bd 190f 833e
00000380: c36e 45bc 99ef c3be c59e e62f e166 153d
00000390: 90e0 af3e 0381 b3bd 046b dd3e 7640 90bd
000003a0: 3851 c13e a24f cc3c 2fc3 f8be 54e3 d2be
000003b0: a8a9 95be c722 9dbc 476e f9bd a503 eb3d
000003c0: 865e 65be 685a aa3e 41c9 9bbe 2cc7 593e
000003d0: b95b b23d 4120 78b9 c3ba 303e 85d3 03bf
000003e0: 5019 693d f90c 8cbe ea9f d8bd 58f6 63bd
000003f0: b9de ff3d a436 59be 6896 043e c3fa 643d

classifier.bias f4 [12]
-0.28015655 -0.40050122 -0.08154065 0.3659133 0.2756356 -0.14051457 0.017860694 -0.0070412583
-0.14051539 -0.30287182 -0.5805628 -0.059320357
00000000: ae70 8fbe 7f0e cdbe c9fe a6bd fd58 bb3e
00000010: 1c20 8d3e 0de3 0fbe 9750 923c 5bba e6bb
00000020: 44e3 0fbe 0412 9bbe c39f 14bf e7f9 72bd
