ml/saved_models/crypto_gat_model.pth (torch, 122285 bytes, 14 tensors)

conv1.att_src f4 [1, 4, 32]
0	0x3cbff853	0.02343384
1	0xbd7bd230	-0.061479747
2	0xbe34c6d2	-0.17653969
3	0xbd42cfea	-0.047561564
4	0xbcbac7b9	-0.022800313
5	0xbec93211	-0.3929601
6	0x3d3fd3d9	0.046832893
7	0xbd3ea243	-0.046541464
8	0xbe140b59	-0.14457454
9	0x3cd2b31e	0.025720175
10	0xbd6d9768	-0.05800572
11	0xbe3963a4	-0.18104416
12	0x3e0bbbc8	0.13645852
13	0xbec5a026	-0.38598746
14	0xbda96d68	-0.08272821
15	0x3dae3582	0.085062996
16	0xbe84d1a9	-0.25941208
17	0xbe13b594	-0.14424735
18	0xbe03ae2d	-0.12859412
19	0xbe661ed5	-0.22472699
20	0xbd8e168d	-0.06937895
21	0xbe427f8d	-0.1899397
22	0x3b9936b2	0.0046757096
23	0xbee68180	-0.45020676
24	0xbea2b378	-0.3177755
25	0xbcf1db83	-0.029523617
26	0xbe486687	-0.19570361
27	0xbe4d73df	-0.20063733
28	0xbe5c93d1	-0.21540762
29	0xbe52bfa3	-0.20580916
30	0xbedd5ddd	-0.43235675
31	0xbd239887	-0.039940383
32	0x3e51778a	0.20455757
33	0xbe2c861b	-0.16848032
34	0xbeb87aa9	-0.36031082
35	0x3f013a6d	0.50479776
36	0xbdd029a1	-0.1016419
37	0xbd991eaf	-0.074765556
38	0x3e0e64ca	0.13905635
39	0xbe998dfe	-0.29991144
40	0xbefb1919	-0.49042585
41	0xbcf05975	-0.029339531
42	0x3e422918	0.18960989
43	0x3e7dff43	0.24804406
44	0x3ce24318	0.027619883
45	0x3e9c5e2a	0.3054059
46	0x3e0b997e	0.13632771
47	0x3e6db0fc	0.23212045
48	0x3d8ac399	0.067755885
49	0x3eb37369	0.35048988
50	0x3e930629	0.28715637
51	0xbdfe82ea	-0.124273136
52	0x3d584535	0.052800376
53	0x3cb90693	0.022586143
54	0x3ea6b561	0.32560256
55	0xbe6e88a7	-0.23294316
56	0x3d5f836b	0.05456869
57	0xbeb5bc75	-0.35495344
58	0x3eb265d1	0.34843305
59	0xbcc8ed51	-0.024527224
60	0x3dcaecbc	0.09908435
61	0x3e77d881	0.24203683
62	0x3e160aee	0.14652607
63	0xbe8d6f0b	-0.27623782
64	0x3e448d17	0.19194447
65	0xbdc28a59	-0.09499044
66	0xbe42056a	-0.18947378
67	0xbde25540	-0.110514164
68	0x3c330e44	0.010928694
69	0xbe65e044	-0.22448832
70	0xbe157f42	-0.14599326
71	0x3e1be032	0.15222242
72	0xbe2ae00b	-0.16687028
73	0xbd8a5e07	-0.067562155
74	0xbe5ef139	-0.21771707
75	0x3e835cde	0.2565679
76	0xbe777e11	-0.24169184
77	0xbdb500e7	-0.08838063
78	0x3e898e69	0.26866463
79	0x3ca0c4bc	0.01962506
80	0xbe3cc222	-0.18433431
81	0xbe03cb81	-0.128706
82	0x3d205c4e	0.03915053
83	0xbec7c1b8	-0.39014983
84	0x3df39525	0.118936814
85	0x3e894942	0.26813704
86	0xbe8f8ceb	-0.280372
87	0x3d6f3523	0.058400284
88	0x3c515bd2	0.012778239
89	0xbe943fff	-0.28955075
90	0xbea0f1c3	-0.3143445
91	0xbdfbeab8	-0.123006284
92	0xbe88d9a9	-0.26728562
93	0x3e132a82	0.14371684
94	0xbd716c3b	-0.058941107
95	0x3deeed18	0.11666316
96	0x3e531620	0.20613909
97	0xbdffea8b	-0.124959074
98	0x3e964a7a	0.29353696
99	0x3e395784	0.18099791
100	0xbd4873d0	-0.048938572
101	0xbdada245	-0.08478216
102	0xbba651a7	-0.0050756517
103	0x3e1778d4	0.14792186
104	0x3d919f13	0.07110419
105	0x3b735114	0.0037127184
106	0xbe09df38	-0.13464057
107	0xbe3e18fb	-0.18564217
108	0xbe8acc9d	-0.27109233
109	0x3e403efc	0.18774027
110	0x3e02cb79	0.12772931
111	0x3e6521af	0.2237613
112	0xbed54c3e	-0.4165973
113	0x3d8093af	0.062781684
114	0xbebfafe9	-0.37438896
115	0xbe37b222	-0.17939046
116	0xbefbf402	-0.492096
117	0x3e49eadb	0.19718497
118	0xbd98c743	-0.07459881
119	0x3dd13268	0.10214692
120	0xbd06e4e1	-0.03293312
121	0xbe9d9250	-0.3077569
122	0xbe9b5c2c	-0.3034376
123	0xbe77b0ff	-0.24188612
124	0xbd160ed4	-0.036635235
125	0xbe260bb8	-0.16215408
126	0x3e9936cc	0.2992462
127	0xbdbb4b3f	-0.091452114

conv1.att_dst f4 [1, 4, 32]
0	0xb491ff36	-2.7194045e-07
1	0x3486e212	2.5123933e-07
2	0x342d22b0	1.61245e-07
3	0xb4deb53f	-4.1482596e-07
4	0xb3f3b585	-1.13485875e-07
5	0x344f8a05	1.9328589e-07
6	0x358ccfda	1.0491306e-06
7	0x340bc1e4	1.3015921e-07
8	0x35d6541e	1.5968724e-06
9	0x33ce4b8d	9.606365e-08
10	0x338de06d	6.606647e-08
11	0x3524568c	6.1220703e-07
12	0xb3067dc0	-3.1313675e-08
13	0x35a21287	1.2075333e-06
14	0x33df76b8	1.04058415e-07
15	0x32bdca00	2.2094355e-08
16	0xb4e40870	-4.2474448e-07
17	0xb4b3fa32	-3.352339e-07
18	0x34227c6b	1.5132689e-07
19	0xb34f110a	-4.821144e-08
20	0x35308bfd	6.576882e-07
21	0x328fe4bd	1.675141e-08
22	0xb4b0ef92	-3.2956865e-07
23	0x35b39b26	1.3381693e-06
24	0xb55190d0	-7.80693e-07
25	0xb3d60934	-9.9668256e-08
26	0x34961e56	2.796175e-07
27	0xb452621a	-1.9593463e-07
28	0xb4b0be39	-3.292096e-07
29	0xb1a0c630	-4.679144e-09
30	0x35b121be	1.3197348e-06
31	0x35c5fbef	1.4750966e-06
32	0x3da3066f	0.079602115
33	0xbe309b77	-0.17246805
34	0xbe0a3e9b	-0.13500445
35	0x3e071ff0	0.13195777
36	0x3ca057a8	0.019573048
37	0xbe0d5981	-0.13803674
38	0xbcb0b44f	-0.021570353
39	0xbe34d8f0	-0.1766088
40	0xbd58a87a	-0.052895047
41	0x3c865e1c	0.016402297
42	0xbcb2ecb2	-0.02184138
43	0xbd8aca98	-0.06776923
44	0xbd013fe8	-0.031555086
45	0xbe507760	-0.20358038
46	0xbc51ed96	-0.012812993
47	0xbca57ad7	-0.020200176
48	0xbd980543	-0.074228786
49	0xbe068af3	-0.13138942
50	0xbe31dc44	-0.17369181
51	0xbd90dd0e	-0.07073413
52	0xbbdcd00f	-0.0067386697
53	0xbcf4bdf1	-0.029875727
54	0xbce89ebb	-0.028396001
55	0xbe139e34	-0.14415818
56	0xbd4e778d	-0.05040698
57	0xbde8c05b	-0.11364814
58	0xbdf811f8	-0.12112802
59	0xbc786f13	-0.015163201
60	0xbdf85c13	-0.12126937
61	0xbcda5541	-0.02665198
62	0xbd23960a	-0.03993801
63	0xbd88b6a2	-0.066754594
64	0x36c214c1	5.7840666e-06
65	0x3810b271	3.4498462e-05
66	0xb776fb0c	-1.4721194e-05
67	0x37f9ef06	2.9794417e-05
68	0x33eb4b13	1.0956696e-07
69	0xb7ea0732	-2.7898324e-05
70	0xb7375710	-1.0927921e-05
71	0xb8408044	-4.5895824e-05
72	0xb6fbda48	-7.505794e-06
73	0xba8e3ad8	-0.0010851277
74	0xb8e2eaf9	-0.00010820287
75	0xb8e5489e	-0.00010933097
76	0x38868443	6.4142536e-05
77	0x3867c046	5.525376e-05
78	0x38105046	3.4407036e-05
79	0xbad13253	-0.0015960432
80	0xb6d7527e	-6.4171027e-06
81	0x3731d275	1.0599023e-05
82	0xba871fbf	-0.0010309144
83	0xb91e8d75	-0.00015120751
84	0xb5ab70ed	-1.2773359e-06
85	0x37f2e8c3	2.8957036e-05
86	0x36e05ca7	6.6865064e-06
87	0x3751be82	1.2501727e-05
88	0x3826a641	3.973232e-05
89	0xb9756e89	-0.00023406198
90	0x38695245	5.562815e-05
91	0x36d73976	6.4141886e-06
92	0x37c17c79	2.3065355e-05
93	0xb99dc457	-0.00030091658
94	0xb5a92936	-1.2603475e-06
95	0x388b8355	6.652499e-05
96	0x3c96d807	0.018413557
97	0xbd2b0628	-0.041753918
98	0x3d9f0635	0.07764856
99	0xbc06e6f5	-0.008233775
100	0xbd27d028	-0.040969998
101	0xbdb5e440	-0.08881426
102	0xbcb84576	-0.022494059
103	0xbcba41ff	-0.022736548
104	0x3c18d9e8	0.009329297
105	0x3cf226cb	0.029559514
106	0x3aa8ac37	0.0012868707
107	0xbd1bc468	-0.038029104
108	0xbda36aa4	-0.079793245
109	0xbc90459b	-0.017611315
110	0x3b579bac	0.0032899184
111	0xbc94d387	-0.01816727
112	0xbdd2f959	-0.103014655
113	0x3c8aa383	0.016923672
114	0xbe0a8842	-0.1352854
115	0x3c61038e	0.013733758
116	0xbe0469df	-0.12931012
117	0x3d933635	0.071880735
118	0xbd918aa1	-0.071065195
119	0xbd12e6cb	-0.035864633
120	0xbd884e25	-0.0665553
121	0xbd9abfe4	-0.075561315
122	0xbd5aa097	-0.053375807
123	0xbe06068b	-0.13088433
124	0x3ca91e25	0.020644257
125	0xbd8af281	-0.06784535
126	0xbdb6dc0c	-0.08928689
127	0xbdbf4cfb	-0.09340855

conv1.bias f4 [128]
0	0xbe84b6d7	-0.25920746
1	0xbe864160	-0.26221752
2	0xb81320bf	-3.507803e-05
3	0xbab472f7	-0.0013767172
4	0xb1c3783a	-5.688915e-09
5	0x3d10c0f1	0.035340253
6	0xbb14f62a	-0.0022729733
7	0x95f43e58	-9.8649176e-26
8	0x3cc830d2	0.024437342
9	0xbca4aa8d	-0.020100856
10	0xbe0f02f5	-0.13965972
11	0xa9dae516	-9.720885e-14
12	0xbe90f5d3	-0.2831255
13	0x00000000	0.0
14	0x3d43c92d	0.047799278
15	0xbd00253b	-0.031285506
16	0xba596b67	-0.0008293897
17	0x9e20613d	-8.490438e-21
18	0xbece2c19	-0.4026802
19	0xbe3e2dd2	-0.18572167
20	0xbe705868	-0.23471224
21	0xbe9b2360	-0.30300426
22	0xbe3c13b2	-0.18366888
23	0xb5d23db9	-1.5664183e-06
24	0xb94d7135	-0.00019592496
25	0xbd701782	-0.05861617
26	0x3bbb83fa	0.00572252
27	0xbb11ab04	-0.0022227177
28	0xbd12fff1	-0.035888616
29	0xbd942265	-0.07233123
30	0x00000000	0.0
31	0x3d3d6590	0.046239436
32	0x3ba8df8c	0.005153602
33	0x3d516267	0.051119234
34	0xbc0adb2a	-0.008475104
35	0xbe4181e2	-0.18897203
36	0xbe7b47ed	-0.24539156
37	0x3c5839a8	0.01319734
38	0xbe83770b	-0.2567676
39	0xb94b495c	-0.00019386917
40	0xbe5defd8	-0.21673524
41	0xbe3e8dcb	-0.18608777
42	0xbc5220c7	-0.012825198
43	0xbc3e74d9	-0.011624538
44	0x3cf49791	0.029857429
45	0x3e1b77ad	0.15182371
46	0xbe0a6f10	-0.1351893
47	0xbdb53587	-0.088481
48	0x3d93fb68	0.07225686
49	0x3dcc9a61	0.09990383
50	0x3e7fb97d	0.24973102
51	0x3cbe4cc5	0.023229966
52	0xbd8dd74c	-0.0692583
53	0x3d998216	0.07495515
54	0xbb807d15	-0.003921161
55	0x3d3fab5d	0.046794284
56	0xbd9fa87f	-0.0779581
57	0xbc4b858d	-0.012421978
58	0x3c0c45c4	0.008561555
59	0x3da35861	0.07975841
60	0x3b7d42b5	0.0038644497
61	0x3c599368	0.013279773
62	0x3d8ea7eb	0.069656216
63	0xbe91791b	-0.2841271
64	0xbc9e1c84	-0.019300707
65	0xbc86689f	-0.01640731
66	0xbd26d703	-0.040732395
67	0x3d25483e	0.0403521
68	0xb986e618	-0.00025729905
69	0x3c95c02e	0.018280115
70	0xbe9beccb	-0.30454096
71	0xbc8629f2	-0.016377423
72	0xbe86619c	-0.26246345
73	0x3db8d137	0.090242796
74	0x3d106979	0.035256837
75	0x3d923a7d	0.07140062
76	0xb20ae712	-8.0851965e-09
77	0x3e14f60a	0.14546981
78	0xbe002a9c	-0.12516254
79	0x3d8f9fd4	0.07012907
80	0xb86399ab	-5.4264132e-05
81	0x3ddbb529	0.10727913
82	0xbeb9a628	-0.3625958
83	0x8cb19758	-2.7362255e-31
84	0xbdb5094c	-0.08839664
85	0xbd840214	-0.06445709
86	0xbc6dd145	-0.014515226
87	0xbbd2cacd	-0.006432867
88	0x3d068952	0.032845803
89	0xb947582e	-0.00019010968
90	0x00000000	0.0
91	0xbdc2fd98	-0.095210254
92	0xbdac018f	-0.08398735
93	0x3d998348	0.07495743
94	0xbe1e9e44	-0.15490061
95	0xbe170fee	-0.1475217
96	0xbe0c8ac9	-0.13724817
97	0xbc580b95	-0.013186355
98	0x3d827c41	0.06371356
99	0xbd46b33a	-0.048510768
100	0xbc29f0b9	-0.010372334
101	0x3e116424	0.14198357
102	0xbbaa3bde	-0.005195125
103	0xbd5ee58a	-0.054418124
104	0x3dcf5406	0.10123448
105	0x3ca98f49	0.020698206
106	0xbdda2616	-0.106517956
107	0xbae83c8b	-0.0017718239
108	0x3d51fa71	0.05126423
109	0xbea783a3	-0.32717618
110	0xbc6f3403	-0.014599803
111	0xbdd1be0d	-0.102413274
112	0x3d4d3105	0.050095577
113	0xbe62505f	-0.22100972
114	0x3e31998f	0.17343734
115	0xbe2dc91d	-0.1697125
116	0xbb47c8bd	-0.003048464
117	0x3d4957ca	0.049155988
118	0x3e2b40e9	0.1672398
119	0xbdba3504	-0.09092143
120	0xbe9bb8bd	-0.30414382
121	0xbe9baead	-0.30406705
122	0x3d77b411	0.06047446
123	0x3dd30978	0.103045404
124	0xbcc2297d	-0.023701424
125	0x3e035df3	0.12828808
126	0xb9786c36	-0.00023691435
127	0x3ddffbb8	0.109366834

conv1.lin.weight f4 [128, 22]
0	0xbe26ff6d	-0.16308375
1	0xbdd9d7d1	-0.10636867
2	0x3e0b02f9	0.13575353
3	0x3d835457	0.06412571
4	0xbe136085	-0.14392288
5	0x3cc9a216	0.024613421
6	0x3dea39c2	0.11436798
7	0xbe3f15aa	-0.18660608
8	0x3d97716e	0.07394682
9	0x3e3f69c8	0.18692696
10	0x3d4b9260	0.04970014
11	0x3c4de750	0.012567356
12	0x3f087570	0.53304195
13	0x3e09d3b1	0.1345966
14	0x80001b72	-9.846e-42
15	0x80001bfd	-1.004e-41
16	0x80001bd2	-9.98e-42
17	0x270b42f7	1.9326427e-15
18	0x80001bd8	-9.988e-42
19	0x80001b5e	-9.817e-42
20	0x3e349fa2	0.1763902
21	0xbe8d4e31	-0.27598718
22	0xbe65d1f8	-0.22443378
23	0xbe846daf	-0.25864932
24	0x3e582ecc	0.21111602
25	0x3d8b94cd	0.06815491
26	0xbe11d9e3	-0.14243273
27	0x3dbc62b5	0.09198514
28	0x3e97ff49	0.29686955
29	0xbe9af0c1	-0.30261806
30	0x3d1822f5	0.037142713
31	0x3e9302d4	0.28713095
32	0x3d449f05	0.048003215
33	0x3d5a000e	0.05322271
34	0x3f387479	0.72052723
35	0x3e448e0e	0.19194815
36	0x00002002	1.1482e-41
37	0x80001c72	-1.0204e-41
38	0x00001bbe	9.952e-42
39	0x00001cbb	1.0307e-41
40	0x00001c05	1.0052e-41
41	0x00001b68	9.832e-42
42	0x3e4830f2	0.19549921
43	0xbe50eefd	-0.20403667
44	0xbd372bf1	-0.04471964
45	0xbbe4ed03	-0.006986262
46	0xbbbb8906	-0.0057231216
47	0xbe27cfc1	-0.16387846
48	0xbc11c980	-0.008898139
49	0x3c6b77b1	0.014371798
50	0x3a8d72dd	0.0010791678
51	0x3bb12d82	0.0054070363
52	0xbbb4a585	-0.0055128955
53	0x3c0b7be2	0.008513423
54	0xbb2c4cd0	-0.00262909
55	0xbb697b35	-0.0035626416
56	0xbd07d0ed	-0.03315823
57	0xbcc43eb6	-0.023955684
58	0x00001b8e	9.885e-42
59	0x80001d0a	-1.0417e-41
60	0x00001bc8	9.966e-42
61	0x00001bde	9.997e-42
62	0x00001b63	9.825e-42
63	0x80001bb5	-9.94e-42
64	0x3d4c3fd3	0.049865555
65	0xbc7dfbd1	-0.015501932
66	0x3e738db2	0.23784521
67	0x3ea54321	0.32277778
68	0x3dc9d048	0.098541796
69	0xbe505be1	-0.20347549
70	0x3c5ea290	0.013588563
71	0x3cc08b60	0.02350396
72	0xbe809bb5	-0.25118795
73	0xbdcbbfef	-0.09948718
74	0x3eb5009a	0.3535202
75	0xbe19eb10	-0.15031075
76	0x3d2119bc	0.039331183
77	0xbe4c934b	-0.19978063
78	0x3e97175c	0.2951001
79	0x3e339c21	0.17540027
80	0x80001bb0	-9.932e-42
81	0x00001bd9	9.99e-42
82	0x000020e6	1.1802e-41
83	0xaf222dc1	-1.4750069e-10
84	0x00001bef	1.002e-41
85	0x00001dda	1.0709e-41
86	0xbd58080c	-0.05274205
87	0xbe4a7e6f	-0.19774793
88	0xba9312c7	-0.0011220806
89	0x3aa44192	0.0012531749
90	0xbaee5abd	-0.0018185001
91	0xbca0be4c	-0.01962199
92	0xbc0d9579	-0.008641594
93	0xbb43a368	-0.0029852036
94	0xbb10db10	-0.0022103228
95	0x3a368979	0.0006963234
96	0xba359f18	-0.0006928309
97	0x3a594fd2	0.0008289787
98	0x3a8557b2	0.001017323
99	0x3a07dcfd	0.0005182771
100	0xbb9312f9	-0.0044883457
101	0xbae0bfd8	-0.0017147018
102	0x8000227d	-1.2372e-41
103	0x80001d6e	-1.0557e-41
104	0x00001da2	1.063e-41
105	0x00001bda	9.991e-42
106	0x80001e38	-1.084e-41
107	0x00001bc9	9.967e-42
108	0x3c0c3fb0	0.008560106
109	0xbbc90487	-0.006134573
110	0xbde48d7c	-0.111597985
111	0xbe42422a	-0.18970552
112	0x3ef32385	0.47488037
113	0xbed21abe	-0.41036028
114	0x3d10a34b	0.03531198
115	0xbe83fa6d	-0.25776997
116	0x3e94a2c4	0.2903043
117	0xbe501fdf	-0.20324658
118	0xbc8264a6	-0.015917134
119	0x3e04fd59	0.1298727
120	0xbc80db34	-0.015729524
121	0x3e105a89	0.14097036
122	0xbd8cf792	-0.06883158
123	0x3e8ab682	0.27092367
124	0x80001b64	-9.826e-42
125	0x00001b8a	9.879e-42
126	0x00001b79	9.855e-42
127	0x80001c64	-1.0185e-41
128	0x00001c4c	1.0151e-41
129	0x80001c07	-1.0054e-41
130	0x3f1dbc6b	0.6161563
131	0xbcb1b279	-0.021691548
132	0xbe516706	-0.20449457
133	0x3c3ada7e	0.011404632
134	0xbc5f3f6d	-0.013625962
135	0x3d7e6a87	0.06211331
136	0xbe6ece46	-0.23320875
137	0x3ad3219f	0.0016108042
138	0x3d5db823	0.054130685
139	0x3cb3c93f	0.021946548
140	0x3b2ae652	0.0026077223
141	0xbd39697d	-0.045266617
142	0xbc0ecf10	-0.00871636
143	0x3c9e5e6a	0.01933213
144	0xbca30222	-0.019898478
145	0x3d11532f	0.03547972
146	0x00001caf	1.029e-41
147	0x00001b78	9.854e-42
148	0x00001bb5	9.94e-42
149	0x80001be1	-1.0001e-41
150	0x80001c69	-1.0192e-41
151	0x80001bc4	-9.96e-42
152	0xbe11b0ce	-0.14227602
153	0x3c221c2a	0.00989441
154	0xbbd29397	-0.0064262855
155	0xba01e2a8	-0.0004954734
156	0xbb2edfe1	-0.0026683735
157	0xbd2dd314	-0.042437628
158	0xbc554c88	-0.013018735
159	0xbb584a81	-0.0033003392
160	0xbb14ee4a	-0.002272504
161	0x3b97be24	0.004630821
162	0xbb29ee2f	-0.0025929322
163	0x3b3e1ac2	0.0029007648
164	0x3ae0b19f	0.0017142779
165	0x3a8a4d33	0.0010551572
166	0xbbcde43d	-0.0062833116
167	0xbb934af8	-0.004495021
168	0x80001fa1	-1.1346e-41
169	0x80001be8	-1.0011e-41
170	0x00001b7a	9.857e-42
171	0x8000202d	-1.1542e-41
172	0x00001d64	1.0543e-41
173	0x80001c5b	-1.0172e-41
174	0x3c823623	0.015894955
175	0xbc225719	-0.009908461
176	0xbe6bfa97	-0.23044811
177	0x3bb0f53c	0.005400328
178	0xbe020c6e	-0.12700054
179	0x3d9cab16	0.076498196
180	0xbed069e8	-0.407058
181	0x3beb8c21	0.0071883355
182	0xbcdc4dca	-0.026892561
183	0x3cf53954	0.029934563
184	0xbbca2528	-0.00616898
185	0xba163213	-0.00057295075
186	0xbc89d611	-0.016825708
187	0x3cd857cf	0.026409058
188	0xbd4cbf8a	-0.049987353
189	0xbc2d7e76	-0.010589233
190	0x000020b8	1.1737e-41
191	0x00001b70	9.843e-42
192	0x800022e5	-1.2518e-41
193	0x00001b9f	9.909e-42
194	0x80001bf2	-1.0025e-41
195	0x8000223a	-1.2278e-41
196	0x3d002aac	0.031290695
197	0xbd244567	-0.04010525
198	0xbea37671	-0.319263
199	0x3e53f0d3	0.20697336
200	0xbebdc654	-0.37065375
201	0x3ac6adbc	0.0015157978
202	0xbbd1e818	-0.0064058416
203	0xbe54a669	-0.20766605
204	0xbe053426	-0.13008174
205	0x3d08da31	0.03341121
206	0x3eb3daf7	0.35127994
207	0x3e1289f9	0.14310445
208	0xbdfd7a6e	-0.12376867
209	0x3e237196	0.15961298
210	0x3e82da53	0.25557193
211	0x3e81b62f	0.25334308
212	0xba544742	-0.00080977764
213	0x00001f38	1.1199e-41
214	0x00001f9c	1.134e-41
215	0x80001b95	-9.895e-42
216	0x00001b92	9.89e-42
217	0x80001b93	-9.892e-42
218	0x3e414107	0.18872462
219	0x3f931f56	1.1493938
220	0xbedb48e4	-0.4282905
221	0xbe21a810	-0.15786767
222	0xbeb09340	-0.34487343
223	0x3d29bf2b	0.041442078
224	0xbc81e678	-0.015856966
225	0xbe23933a	-0.15974131
226	0x3f2d3cd5	0.6767095
227	0xbec70241	-0.38868907
228	0x3d8c67b2	0.06855716
229	0x3f2ecc7c	0.6828077
230	0x3e89fa0c	0.26948583
231	0x3dece10d	0.115663625
232	0x3eba3f39	0.3637636
233	0x3e0998b7	0.13437162
234	0x38f7578a	0.00011794183
235	0x00001bc1	9.956e-42
236	0x80001bd2	-9.98e-42
237	0x80001ba2	-9.913e-42
238	0x80001cb9	-1.0304e-41
239	0x80001c3d	-1.013e-41
240	0x3e81eeb8	0.2537744
241	0x3c45b075	0.012065996
242	0xbd25d7e7	-0.040489104
243	0xbbd3d46a	-0.0064645307
244	0xbbdf4c41	-0.00681451
245	0xbe18c156	-0.14917502
246	0xbda3084b	-0.07960566
247	0x3c57d3ff	0.013173102
248	0x3a0d07bb	0.0005379875
249	0x3bf64433	0.007515454
250	0xbbd402b9	-0.006470051
251	0x3c1eaef6	0.009685269
252	0xbb1e7bdd	-0.0024182715
253	0xbb68215f	-0.0035420281
254	0xbcf4fa68	-0.02990456
255	0xbcb5c2c2	-0.022187594

conv2.att_src f4 [1, 4, 32]
0	0x3dccb028	0.09994537
1	0x3ea2bc65	0.3178436
2	0x3d53a8cd	0.051674653
3	0x3eaf1c77	0.34201404
4	0xbcd1e40b	-0.025621435
5	0xbe85558d	-0.26041833
6	0x3ebd6415	0.3699042
7	0xbe7e953d	-0.24861617
8	0xbdb283d8	-0.087165534
9	0x3e5510c1	0.20807172
10	0x3dda5d9a	0.10662384
11	0xbeca3531	-0.39493707
12	0xbe95555d	-0.2916669
13	0x3e2a03e2	0.16603044
14	0x3e4d049e	0.20021293
15	0x3e4c29bf	0.199378
16	0x3d0657ca	0.032798566
17	0xbd66fd0c	-0.056393668
18	0xbe1a5d83	-0.15074734
19	0xbe44b9ca	-0.19211498
20	0xbe893f6a	-0.26806194
21	0xbd0499b5	-0.03237315
22	0x3ea95709	0.33074215
23	0xbe3a7bfd	-0.1821136
24	0xbdcb82a6	-0.099370286
25	0x3ee306ae	0.44341034
26	0xbe0051bc	-0.12531179
27	0xbde358c9	-0.11100919
28	0xbd98e335	-0.07465211
29	0xbe6a3045	-0.22869976
30	0xbcb94905	-0.022617826
31	0x3e92269e	0.28545088
32	0xbe4746db	-0.19460623
33	0xbd94d513	-0.07267203
34	0x3b845113	0.004037985
35	0x3e6832fa	0.22675696
36	0x3b9a7bf7	0.004714485
37	0xbdfda204	-0.12384418
38	0x3db4d942	0.08830501
39	0xbe10e8bd	-0.14151283
40	0xbcf60bdd	-0.030034954
41	0x3d9a5e57	0.07537525
42	0x3db2c2fd	0.08728597
43	0x3dd5701d	0.104217745
44	0x3dc79592	0.09745325
45	0x3e484a1a	0.19559518
46	0x3e676839	0.22598352
47	0xbd47407c	-0.04864548
48	0x3e711a56	0.23545203
49	0xbcd6eb68	-0.026235297
50	0x3e6a1ce2	0.2286258
51	0xbde66ec5	-0.11251596
52	0xbd43ba39	-0.047785018
53	0x3d4af9e2	0.049554713
54	0xbdcbbf70	-0.09948623
55	0x3d1ee2f6	0.038790666
56	0xbd7db14f	-0.061936673
57	0xbd434031	-0.04766864
58	0x3d9ac1e2	0.075565115
59	0x3e0c55ee	0.13704655
60	0x3ce4f7ba	0.027950156
61	0xbd6a8be5	-0.05726232
62	0xbe3ab93c	-0.18234724
63	0xbd75b33d	-0.059985388
64	0xbebd722d	-0.37001172
65	0x3e5362cf	0.20643161
66	0xbe4a945f	-0.19783162
67	0xbd6b4de1	-0.057447318
68	0x3c429576	0.011876455
69	0xbdfc4d6c	-0.123194546
70	0xbe7f34f6	-0.24922547
71	0x3d072f41	0.03300405
72	0xbe523b48	-0.20530427
73	0x3e354dab	0.17705409
74	0x3e72016c	0.23633355
75	0xbbd6e55d	-0.006558104
76	0x3e0c5d36	0.13707432
77	0xbe0b1ec6	-0.13585958
78	0xbd1798b0	-0.03701085
79	0x3e6a6e0c	0.22893542
80	0xbdf01ec7	-0.1172462
81	0xbe6a649e	-0.22889945
82	0x3de9aee8	0.11410314
83	0x3d794e6a	0.060865797
84	0xbe08a0c5	-0.13342579
85	0x3e75e49a	0.24012986
86	0x3dc55ab9	0.096364446
87	0xbe3152b4	-0.17316705
88	0xbc519f07	-0.012794263
89	0x3dfed955	0.124437965
90	0xbdab7633	-0.08372154
91	0xbdb187e8	-0.086685
92	0x3de762a4	0.11298111
93	0xbe1c02dc	-0.15235466
94	0xbeab1bb9	-0.33419588
95	0xbe1ccbd1	-0.15312125
96	0xbdd8a90e	-0.105791196
97	0xbdbd04ab	-0.09229406
98	0x3e84437b	0.25832734
99	0xbe9442fa	-0.2895735
100	0xbe5e68fc	-0.21719736
101	0xbde67ab8	-0.112538755
102	0x3e2b2476	0.16713127
103	0x3d3809e9	0.044931326
104	0xbd9aad0b	-0.075525366
105	0x3bcd4764	0.006264614
106	0xbe14b44e	-0.14521906
107	0xbd488f52	-0.048964806
108	0x3d144d69	0.036206637
109	0xbd4436ab	-0.047903698
110	0xbdf1e19f	-0.11810612
111	0x3e29bb0c	0.16575259
112	0xbdde105c	-0.10842964
113	0xbd8ffcfa	-0.07030673
114	0xbd15be9f	-0.036558744
115	0x3e263303	0.16230397
116	0x3e675b0b	0.22593324
117	0x3de12baf	0.1099466
118	0x3de7bb08	0.1131497
119	0x3e9a9eb0	0.30199194
120	0xbcac8f7a	-0.021064509
121	0xbdac49e2	-0.084125295
122	0x3de445e1	0.11146141
123	0xbe95db29	-0.29268768
124	0x3d3ca1ac	0.04605262
125	0x3d0e4c83	0.034740936
126	0xbd40fb75	-0.047114808
127	0xbda67ba4	-0.08129051

conv2.att_dst f4 [1, 4, 32]
0	0x3ccbbf16	0.02487139
1	0x3cbe76e6	0.023250055
2	0x3c036e4c	0.008021902
3	0x3d39cb7f	0.045360085
4	0x3d2350f9	0.039872143
5	0xbb8f28e6	-0.004368889
6	0x3d8c2d85	0.0684462
7	0xbca9b680	-0.020716906
8	0xbc2f0c25	-0.010684048
9	0x3d1b7afd	0.037959088
10	0xbcd573da	-0.026056219
11	0xbda126f4	-0.07868758
12	0xbd851998	-0.06499022
13	0x3dbd9b81	0.09258176
14	0xbc6c8b8e	-0.014437569
15	0x3d4a82de	0.04944121
16	0x3bb0a82c	0.0053911414
17	0x3a45e9ec	0.00075498107
18	0xbaa9e055	-0.0012960533
19	0xbd40f321	-0.047106866
20	0xbda91159	-0.08255262
21	0xbd25357f	-0.04033422
22	0x3cadb4c9	0.02120437
23	0xbdc00d54	-0.09377542
24	0x3a9d8229	0.001201694
25	0x3d507c9a	0.05090008
26	0xbd5cc0f0	-0.053894937
27	0xbd02512e	-0.0318157
28	0x3cc97d3f	0.024595855
29	0xbd48f1ea	-0.049058832
30	0x3d102a7a	0.03519676
31	0x3d312987	0.043252494
32	0xbd5bd8a0	-0.053673387
33	0xbd384786	-0.044990085
34	0xbd6933d2	-0.056934185
35	0x3d98da70	0.07463539
36	0x3c6a7538	0.014310174
37	0x3d1aa1c8	0.037751943
38	0x3c0c4872	0.008562194
39	0xbd872595	-0.06598965
40	0x3cfa6e6c	0.030570231
41	0xbd181075	-0.03712507
42	0x3d2d3089	0.042282615
43	0x3ce69b97	0.028150363
44	0x3d003499	0.03130016
45	0xbb1c01b7	-0.0023804733
46	0x3ba6c22b	0.0050890646
47	0x3d48921b	0.048967462
48	0x3d6a845b	0.05725513
49	0x3c8d62c3	0.017259007
50	0xbd498399	-0.049197767
51	0xbdbbcf76	-0.091704294
52	0x3c98756b	0.018610677
53	0xbda2a98a	-0.07942493
54	0xba3223e3	-0.00067955087
55	0x3b010b08	0.0019690413
56	0x3c5fd695	0.013662
57	0x3cf36807	0.02971269
58	0xbb7c0293	-0.0038453683
59	0x3d00746e	0.031361036
60	0xbd366d1d	-0.044537652
61	0xbd4727aa	-0.04862181
62	0xbd764b91	-0.06013066
63	0xbc266efe	-0.010158299
64	0xbd3e920f	-0.04652601
65	0x3d10b0fe	0.035325043
66	0xbcaf3af0	-0.021390408
67	0xbb5de9a6	-0.003386119
68	0x3d38c6ae	0.04511135
69	0xbcf0fddc	-0.029417925
70	0xbcfbc5a9	-0.0307339
71	0x3b38211a	0.0028095902
72	0xbc392e30	-0.011302516
73	0x3cde71bd	0.027153844
74	0x3cacd67f	0.021098373
75	0xbaf2eb34	-0.0018533231
76	0x3cb3d942	0.021954183
77	0xbcc8e879	-0.024524914
78	0xbca404e5	-0.020021865
79	0x3cc18957	0.023625059
80	0xbcb34b3b	-0.021886459
81	0xbcbfc974	-0.02341149
82	0x3cd11c91	0.025526317
83	0xbc0fac44	-0.008769099
84	0xbc9fe675	-0.01951907
85	0x3d16c272	0.03680653
86	0x3cf3dc45	0.029768119
87	0xbce51d83	-0.027968174
88	0x3be83d6c	0.0070874
89	0x3cc8ec88	0.02452685
90	0xbd3900f1	-0.045166913
91	0xbc4efd2a	-0.012633601
92	0xbaece86a	-0.0018074636
93	0xbbe6251e	-0.0070234677
94	0xbc8b101f	-0.01697546
95	0xbd084b2f	-0.033274826
96	0xbd594b07	-0.053050067
97	0xbd18e259	-0.037325237
98	0x3b22f54a	0.0024865442
99	0x3c42bc0f	0.011885657
100	0x3d1fd288	0.039019138
101	0xbc5e9c00	-0.013586998
102	0xbc5c524b	-0.013447355
103	0x3d0b4092	0.033997126
104	0x3b4ebac5	0.0031544429
105	0x3c9e1479	0.019296871
106	0xbcec74cf	-0.028864292
107	0xbd8a1152	-0.06741585
108	0xbd9472ea	-0.072484806
109	0xbbcd077a	-0.006256995
110	0xbc94c3b4	-0.018159725
111	0x3cbf5f6d	0.023360932
112	0xbb3b4165	-0.0028572914
113	0xbc16689d	-0.009180215
114	0xbbf6571e	-0.0075177094
115	0xbbee7c5c	-0.0072780084
116	0xbd9504d2	-0.0727631
117	0xbd79845b	-0.06091724
118	0x3c82b412	0.015955005
119	0x3acd97a0	0.0015685447
120	0xbcc58de1	-0.024115505
121	0xbcd50149	-0.02600159
122	0xbd4ee278	-0.050508946
123	0x3db58674	0.088635355
124	0xbd2aa52d	-0.04166143
125	0x3c7f80a4	0.015594635
126	0xbcbd053d	-0.023073787
127	0xbd75bfd8	-0.05999741

conv2.bias f4 [128]
0	0x3db969a8	0.090533555
1	0x3dbedd74	0.093195826
2	0x3e1db19a	0.15399781
3	0xbc97a8ed	-0.018513167
4	0x3da246bb	0.07923647
5	0x3d84b2b4	0.064793974
6	0x3d8ca6cc	0.068677515
7	0x3d835935	0.06413499
8	0x3d8a4dbb	0.06753107
9	0xbcd3a4a0	-0.025835335
10	0xbd773063	-0.06034888
11	0x3d8ba1d2	0.06817974
12	0x3da95445	0.08268026
13	0x3ea85d8d	0.32883874
14	0x3daf6922	0.08564974
15	0x3de994c0	0.11405325
16	0x3dc05336	0.09390871
17	0xbcf7a9c8	-0.030232325
18	0x3e181f1a	0.14855614
19	0x3d56a9f9	0.052408192
20	0xbc51fc76	-0.012816539
21	0x3d14ee3a	0.036360003
22	0xbc254531	-0.010087297
23	0x3d4578e9	0.048211012
24	0xbd4d28cd	-0.05008774
25	0x3d2bd6d6	0.04195293
26	0xbdf4f40d	-0.119606115
27	0x3dacb405	0.084327735
28	0x3e0c7748	0.13717377
29	0x3cca6d32	0.024710272
30	0x3e6f1f1c	0.23351711
31	0x3da03f95	0.07824627
32	0xbdb75331	-0.089514144
33	0x3e641ab3	0.2227581
34	0xbc169411	-0.009190575
35	0x3d577d32	0.05260963
36	0x3e0ac30a	0.13550964
37	0x3e06d336	0.13166508
38	0x3e01b4b4	0.12666589
39	0x3dc2dae5	0.09514407
40	0x3da3a3b0	0.07990205
41	0xbb60800c	-0.003425601
42	0x3d8687c5	0.06568865
43	0x3dbb2251	0.09137405
44	0x3dbe10af	0.09280526
45	0xbca5674e	-0.020190861
46	0x3d51a6a0	0.051184297
47	0x3cb13eb8	0.021636352
48	0x3d861ddd	0.06548665
49	0xbcce39b9	-0.025174009
50	0x3d84ca45	0.06483892
51	0x3d134195	0.035951216
52	0x3e14733d	0.14497085
53	0x3e9016b8	0.28142333
54	0x3e548afe	0.20756146
55	0x3dbeded2	0.09319843
56	0xbb94a45d	-0.004536195
57	0x3ddf864d	0.10914288
58	0x3d906180	0.07049847
59	0x3d9d7219	0.07687778
60	0x3c5cb6f5	0.013471355
61	0xbc71a2a3	-0.014748248
62	0x3df8efdc	0.121551245
63	0xbe1990e9	-0.14996685
64	0x3e1c7e9f	0.15282677
65	0x3d543617	0.051809397
66	0x3decc962	0.11561848
67	0x3d403957	0.046929684
68	0x3d651ea4	0.055937424
69	0x3de680cc	0.11255035
70	0xbba195c4	-0.0049311835
71	0xbc278841	-0.010225357
72	0x3e083b7b	0.1330394
73	0x3d56915c	0.05238472
74	0xbb6d2d0b	-0.0036190178
75	0x3d65e28b	0.05612425
76	0xbe87409e	-0.26416487
77	0x3e4d2020	0.20031786
78	0x3d4f1d01	0.05056477
79	0x3d084a73	0.033274125
80	0x3d1a3261	0.0376457
81	0x3e2f2860	0.17105246
82	0xbe2befc5	-0.16790684
83	0x3c1479cd	0.009062243
84	0xbb18d3b7	-0.0023319551
85	0x3d4ee051	0.050506894
86	0x3cdc12ce	0.026864436
87	0x3c270cae	0.010195894
88	0x3c5ebbab	0.013594548
89	0x3da95dce	0.08269845
90	0x3d7e65c5	0.062108774
91	0xbbae996b	-0.0053283474
92	0x3d4d7c06	0.050167106
93	0x3dbcba7a	0.09215255
94	0x3e464b19	0.19364585
95	0x3d6a7290	0.05723816
96	0x3e1b8579	0.15187635
97	0x3e3a8cdf	0.182178
98	0x3dc73a8b	0.09727963
99	0x3e11f5f7	0.14253984
100	0x3db66e5b	0.089077674
101	0x3dfac7d5	0.12245146
102	0x3d667a10	0.05626875
103	0x3df7ec45	0.12105612
104	0x3e51a552	0.20473221
105	0xbd57a43d	-0.052646864
106	0x3e424bd9	0.18974246
107	0x3cd985d5	0.026553074
108	0x3e33c913	0.17557172
109	0x3dfc47d7	0.1231839
110	0xbd968b0c	-0.0735074
111	0x3d7c3c72	0.061581083
112	0xbd829e75	-0.063778795
113	0x3e1d9508	0.15388882
114	0x3c9399c4	0.018017657
115	0x3dbe7336	0.092993185
116	0x3e91ce25	0.28477588
117	0x3da5f1df	0.08102774
118	0x3e5f61b1	0.2181461
119	0x3ebc57ba	0.3678568
120	0x3dd38593	0.10328212
121	0x3e35754b	0.17720525
122	0x3dcf7d45	0.10131315
123	0xbd2bb9e4	-0.041925326
124	0x3e16f0ed	0.14740343
125	0xbd217f79	-0.039428208
126	0xbca8ebab	-0.020620188
127	0x3df1c973	0.118060015

conv2.lin.weight f4 [128, 128]
0	0xbd404bf3	-0.04694743
1	0xbe196cd7	-0.14982925
2	0x3c9e75ba	0.019343246
3	0x3cfba872	0.03071997
4	0xadd6e812	-2.4432043e-11
5	0xbe0ed5da	-0.13948765
6	0xbcd88c7e	-0.02643418
7	0xb7d6c754	-2.5603607e-05
8	0xbd13169d	-0.035910238
9	0xbe147dd9	-0.14501132
10	0xbca18273	-0.019715523
11	0x80001f61	-1.1257e-41
12	0xbc4595b5	-0.012059619
13	0x00001ba1	9.911e-42
14	0x3e4a5345	0.19758327
15	0xbd0973a9	-0.033557568
16	0x3bdb73d2	0.0066971565
17	0x3b8baf8a	0.0042628692
18	0xbd8a6044	-0.067566425
19	0x3e1d186d	0.15341349
20	0xbd15482a	-0.036445774
21	0x3d1b3902	0.037896164
22	0xbd18b548	-0.03728226
23	0x80001b6e	-9.84e-42
24	0xbc6d43c9	-0.014481493
25	0x3dc66938	0.09688038
26	0xbddec1d5	-0.10876814
27	0x3ca2d46b	0.01987668
28	0x3b0b1f05	0.0021228206
29	0x3dfb432f	0.12268674
30	0x00001be9	1.0012e-41
31	0xbc9c20d1	-0.019058617
32	0x3acfe2a0	0.0015860386
33	0x3dd4c896	0.10389821
34	0x3d42c6c1	0.047552828
35	0xbcac80ce	-0.021057513
36	0xbcfb177c	-0.030650847
37	0xbd8552a0	-0.065099
38	0xbc9122a9	-0.017716723
39	0xb4879df0	-2.5260624e-07
40	0xbddc064b	-0.10743388
41	0x3bb4ed71	0.0055214693
42	0x3cb6fd63	0.022337621
43	0x3e37751c	0.17915767
44	0xbd26ce47	-0.040724065
45	0xbdb3e980	-0.08784771
46	0xbd7c80d2	-0.06164629
47	0x3dce8a15	0.10084931
48	0x3d9f00d3	0.07763829
49	0xbdcc621b	-0.0997965
50	0xbdd4f215	-0.10397736
51	0x3d801f8e	0.062560186
52	0x3d6cae94	0.05778368
53	0x3e4fd0fa	0.20294562
54	0x3e068126	0.13135204
55	0xbd15163b	-0.036398154
56	0x3db8d5cb	0.09025153
57	0xbcd1cb96	-0.025609773
58	0x3bb98a6e	0.005662254
59	0xbd9c27a4	-0.07624748
60	0xbcdcf796	-0.026973527
61	0x3df27091	0.118378766
62	0xbd764ea1	-0.06013358
63	0xbe3b1933	-0.18271331
64	0xbd54c194	-0.051942423
65	0xbd640bb5	-0.055675227
66	0x3da4a1d3	0.08038678
67	0xbc2a6eb5	-0.010402371
68	0xbab33c19	-0.0013674527
69	0x3c8d4497	0.01724462
70	0xbda9b5dd	-0.08286641
71	0xbd1f66b8	-0.03891632
72	0x3cda65f2	0.02665994
73	0xbd825e83	-0.06365683
74	0xbcdac74d	-0.026706362
75	0xbddf614b	-0.10907229
76	0x00001b6a	9.834e-42
77	0xbdc36b31	-0.095419295
78	0xbdb21ffe	-0.08697508
79	0xbd75dbbf	-0.06002402
80	0xb9272ff3	-0.00015944224
81	0xbcb9b4cd	-0.02266922
82	0xbd6d93b8	-0.058002204
83	0x80001ba6	-9.918e-42
84	0x3ce2f60b	0.027705213
85	0x3c045f99	0.008079433
86	0x3d43ee04	0.04783441
87	0x3d718a1f	0.058969613
88	0xbd3ff10a	-0.046860732
89	0x030b9ec0	4.1030665e-37
90	0x00001bc1	9.956e-42
91	0xbb02b8a6	-0.0019946485
92	0x3d7ec6dc	0.062201366
93	0xbe1553cb	-0.14582746
94	0x3c245a78	0.010031335
95	0xbd42420d	-0.047426272
96	0x3ce52ecd	0.027976418
97	0x3e11d85b	0.1424269
98	0x3d827be1	0.06371284
99	0xbbe09c31	-0.006854557
100	0x3c6604da	0.014039243
101	0xbd8c2b39	-0.068441816
102	0x36714724	3.5953208e-06
103	0xbc52ae7d	-0.012858984
104	0x3cfdf512	0.031000648
105	0x3d2f1280	0.042742252
106	0x3ce0857c	0.0274074
107	0x3cf92659	0.030413793
108	0x3c83ab70	0.016072959
109	0xbc5b4955	-0.013384183
110	0x3bf2557c	0.0073954444
111	0x3d0e048e	0.034672312
112	0x3b9fa2c5	0.0048716986
113	0xbe06327e	-0.13105199
114	0xbd24cce4	-0.04023446
115	0xbd39f3a0	-0.045398355
116	0xbd61da67	-0.055139925
117	0x3d153ecf	0.036436852
118	0xbd84ae87	-0.06478601
119	0xbe405eee	-0.18786213
120	0xbd46c0ad	-0.048523594
121	0x3e00819e	0.12549445
122	0xbdbf1393	-0.09329905
123	0xbd8ed7c6	-0.06974749
124	0x3d1f1927	0.038842347
125	0xbcb1fe18	-0.021727607
126	0xbc303b78	-0.010756366
127	0xbcefd101	-0.029274466
128	0xbc52c210	-0.012863651
129	0xbbf50b76	-0.007478173
130	0xbac4922f	-0.0014997179
131	0xbe1216fe	-0.14266583
132	0xafcb439f	-3.6973533e-10
133	0x3cf77a0c	0.030209564
134	0xbc017ae5	-0.0079028355
135	0x3a0e1fce	0.00054216094
136	0x3bbae691	0.005703755
137	0x3bd0eccf	0.006375886
138	0x3e55f98e	0.20895979
139	0x80001b69	-9.833e-42
140	0xbe4e1edf	-0.20128964
141	0x00001bf2	1.0025e-41
142	0xbdfc84ff	-0.123300545
143	0xbe30e5ad	-0.17275114
144	0xb96d01ce	-0.00022602754
145	0x397e34e1	0.00024243027
146	0xbcd313d8	-0.025766298
147	0x3d95a2fd	0.07306478
148	0xbcbfa853	-0.023395693
149	0x3e1dba4a	0.15403095
150	0xbbf5f15a	-0.007505578
151	0x00001b93	9.892e-42
152	0xbbcf2d76	-0.006322558
153	0xbcd5db0c	-0.026105426
154	0x3bfad47a	0.0076547237
155	0x3b804443	0.0039143874
156	0x3d5e9bbf	0.05434775
157	0x3d9de56f	0.077097766
158	0x00001bab	9.925e-42
159	0x3ca4c3e5	0.020112941
160	0x3e308903	0.17239766
161	0x3e5c9740	0.21542072
162	0x3d06aa2c	0.032877132
163	0x3e0848e0	0.1330905
164	0xbdf30518	-0.11866206
165	0x3b4ac4e7	0.0030940117
166	0xbde4efc8	-0.11178547
167	0xb7eafe4d	-2.8013392e-05
168	0xbdd72652	-0.10505356
169	0xbcf52fd0	-0.029930025
170	0xbc651e21	-0.013984234
171	0x3d8e972a	0.06962426
172	0x3cbcb992	0.023037706
173	0xbd57212f	-0.05252188
174	0xbe3a7f6e	-0.18212673
175	0xbd4198dd	-0.047264922
176	0x3d025c19	0.031826112
177	0xbcb3f16e	-0.021965709
178	0xbdc05039	-0.09390301
179	0xbd852108	-0.06500441
180	0xbdb8caf9	-0.09023089
181	0xbaf1d16a	-0.0018449251
182	0x3d462be7	0.048381712
183	0xbd775baa	-0.060390152
184	0x3994f3b4	0.00028410333
185	0x3b0f8030	0.0021896474
186	0x3d1a19c3	0.037622225
187	0xbdc2e1e2	-0.0951574
188	0x3e9bfd78	0.3046682
189	0xbd224bb2	-0.03962297
190	0x3ce44bfd	0.027868265
191	0xbdc632ef	-0.096776836
192	0xbd472bf8	-0.048625916
193	0x3cda6389	0.02665879
194	0xbd7ae11f	-0.06124985
195	0xbc3216aa	-0.010869661
196	0xba1bceff	-0.00059436256
197	0xbdfce715	-0.12348763
198	0x3daa2d78	0.08309454
199	0xbc925114	-0.017860927
200	0x3e14e07c	0.14538759
201	0xbd100045	-0.035156507
202	0xbcab1205	-0.020882616
203	0x3de07555	0.10959879
204	0x00001b58	9.809e-42
205	0xbc673d5c	-0.01411375
206	0x3de79e6f	0.11309516
207	0xbc6610f2	-0.014042126
208	0x3479208e	2.3201775e-07
209	0xbc83cd90	-0.01608923
210	0x3ce3df63	0.02781648
211	0x00001bdd	9.995e-42
212	0xbdd43f73	-0.103636645
213	0x3e1ea94c	0.15494269
214	0xbd0d90ca	-0.03456191
215	0xbde2fbe4	-0.110832006
216	0xbd3c30f2	-0.045945115
217	0x91b4f7e8	-2.8551777e-28
218	0x00001bda	9.991e-42
219	0x3d3a6db1	0.045514766
220	0xbd68b855	-0.056816418
221	0xbda28c98	-0.079369724
222	0x3d19cf8d	0.03755145
223	0x3ad56f74	0.0016283826
224	0xbdb589b7	-0.08864158
225	0x3bcd8470	0.0062718913
226	0x3d15a00d	0.03652959
227	0x3c86ecef	0.0164704
228	0xbcaace33	-0.020850277
229	0xbe16f5eb	-0.14742248
230	0xb9db9b29	-0.00041886538
231	0x3d9c73fa	0.07639308
232	0xbe3b97a1	-0.1831956
233	0xbb9c6337	-0.0047725695
234	0xbd7df66d	-0.062002588
235	0x3c2153b9	0.009846621
236	0xbe42e7a6	-0.1903368
237	0xbcf25a70	-0.02958414
238	0x3d6322d3	0.055453133
239	0xbcdb083c	-0.026737325
240	0xbe0a0dde	-0.13481852
241	0xbe0abaf2	-0.13547876
242	0xbdca2530	-0.09870374
243	0xbe6c010c	-0.23047274
244	0x3c08b8c6	0.008344835
245	0x3c653c55	0.013991435
246	0xbdcd7302	-0.100317016
247	0x3e0c7abd	0.13718696
248	0x3d2adf9e	0.041717164
249	0x3d9ceade	0.07661985
250	0x3dbdd543	0.09269192
251	0xbe4f67c4	-0.20254427
252	0x3c885b6d	0.016645158
253	0xbd6492b4	-0.05580397
254	0xbc55e924	-0.013056073
255	0xbdd932fa	-0.10605426

conv3.att_src f4 [1, 1, 64]
0	0x3c9d2ca9	0.019186335
1	0x3e252f11	0.16131236
2	0xbd1195f6	-0.035543405
3	0xbd668131	-0.05627555
4	0xbe40cc7f	-0.18828009
5	0xbcd27546	-0.025690686
6	0xbd73cddd	-0.0595225
7	0x3d80bc86	0.06285958
8	0x3e012313	0.12611036
9	0xbde8e7f9	-0.1137237
10	0xbdf4f788	-0.11961275
11	0xbd8ef0c0	-0.06979513
12	0xbd7acbaa	-0.061229385
13	0x3c2a4a34	0.010393668
14	0xbd552b75	-0.052043397
15	0xbd484ad5	-0.04889949
16	0x3d3d21be	0.046174757
17	0xbda2d29d	-0.079503275
18	0xbe1fd4e0	-0.15608549
19	0x3d2249a9	0.03962103
20	0xbd6ab581	-0.057302002
21	0x3d271489	0.04079107
22	0xbe2bed4b	-0.16789739
23	0xbdf46a20	-0.11934304
24	0x3d74336d	0.059619356
25	0x3e3d8e25	0.18511255
26	0xbd9ea71a	-0.07746716
27	0xbd34ff02	-0.044188507
28	0x3bc516f2	0.006014698
29	0x3de8f76b	0.11375316
30	0xbe169b08	-0.14707577
31	0x3bce3dbf	0.006293982
32	0xbe3d3a51	-0.18479277
33	0x3e17acbf	0.14811991
34	0x3df0ff4e	0.117674455
35	0xbdce2586	-0.10065751
36	0x3d974f23	0.07388141
37	0xbd8b8a3d	-0.06813476
38	0x3e84e144	0.25953114
39	0xbddb778d	-0.10716162
40	0x3dc09874	0.09404078
41	0x3e200e32	0.15630415
42	0x3d04526f	0.032305177
43	0xbdab6f40	-0.08370829
44	0xbe359524	-0.17732674
45	0x3dfe4f8c	0.12417516
46	0xbd2cfe2e	-0.042234592
47	0xbd840585	-0.06446365
48	0xbdeae54e	-0.11469518
49	0xbe391586	-0.18074617
50	0xbe6a2374	-0.22865087
51	0x3d8d71bd	0.069064595
52	0x3d8b2626	0.067943856
53	0x3d1c9cce	0.038235478
54	0x3e993812	0.2992559
55	0x3d4b22fd	0.049593914
56	0x3cb5af8d	0.022178436
57	0xbdc1f832	-0.094711676
58	0xbe4f02ce	-0.20215914
59	0x3c9167fd	0.01774978
60	0xbd1fdc88	-0.039028674
61	0xbda54e68	-0.080715954
62	0x3d3044a5	0.043034215
63	0x3de16b3f	0.11006784

conv3.att_dst f4 [1, 1, 64]
0	0x3d8dba8e	0.06920348
1	0xbacbe47f	-0.0015555768
2	0xbbb9d0ef	-0.005670659
3	0x3cb0f8a6	0.02160294
4	0x3ba5dfe1	0.005062089
5	0x3c23d23b	0.009998853
6	0x3b0d7003	0.0021581657
7	0x3db15d77	0.08660405
8	0xbd200b04	-0.039073005
9	0xbd054f9a	-0.032546617
10	0x3ce7d2a0	0.028298676
11	0x3d8a4e33	0.067531966
12	0x3c745f6f	0.014915331
13	0x3b886e91	0.004163571
14	0x3dcf43b9	0.10120339
15	0x3d889142	0.06668331
16	0x3d9be3e7	0.07611828
17	0x3e1d674d	0.15371437
18	0xbd7f5b7f	-0.062343117
19	0x3d54ad77	0.05192324
20	0xbc819319	-0.015817212
21	0xbc4e2546	-0.012582129
22	0xbc704353	-0.014664489
23	0x3dbfe7b7	0.09370368
24	0x3d8f186a	0.069870785
25	0x3c05765a	0.008145893
26	0x3db43a6a	0.08800204
27	0xbe0eef81	-0.13958551
28	0xbd92389c	-0.07139704
29	0xbd4aa320	-0.049471974
30	0x3a4b38a9	0.00077522785
31	0x3ca315c0	0.019907832
32	0x3d444500	0.047917366
33	0x3d2a1db4	0.041532233
34	0x3d36f471	0.04466671
35	0x3cd753a2	0.026284996
36	0x3aab59f6	0.0013073075
37	0x3dc0f953	0.09422555
38	0xbd9950af	-0.07486092
39	0xbd851c76	-0.06499569
40	0x3c77cdfe	0.015124796
41	0xbdba5104	-0.09097484
42	0x3d39c59f	0.04535448
43	0x3c6aec09	0.014338502
44	0x3e28a070	0.16467452
45	0xbd83b5d0	-0.06431162
46	0x3c87c723	0.016574448
47	0x3dab3e5f	0.08361506
48	0x3d479ac5	0.048731584
49	0xbc4586d0	-0.012056068
50	0x3cd7d446	0.026346337
51	0x3df16d96	0.1178848
52	0x3e24914a	0.16071048
53	0x3dd450bf	0.103669636
54	0xbdee5110	-0.11636555
55	0x3baa9490	0.0052056983
56	0xbdcd56af	-0.10026299
57	0x3d2a67c0	0.04160285
58	0x3e1e4f0a	0.15459839
59	0x3bcf2443	0.0063214614
60	0xbb5e3d6d	-0.0033911124
61	0x3dce699f	0.100787394
62	0x3cc83dd7	0.02444355
63	0x3d935ac0	0.071950436

conv3.bias f4 [64]
0	0x3e56c394	0.20973045
1	0x3f072195	0.5278562
2	0x3ee67931	0.45014337
3	0x3f09b6c4	0.53794503
4	0xbeb6a2b4	-0.35671008
5	0xbdc22801	-0.094802864
6	0xbe75909d	-0.23980947
7	0x3eb6244c	0.35574567
8	0xbdb9dff2	-0.09075917
9	0x3eb7edf2	0.35923725
10	0xbd941139	-0.072298475
11	0x3e60c972	0.21951845
12	0x3e5decfd	0.21672435
13	0x3e4663cb	0.19374005
14	0x3eb48e28	0.35264707
15	0x3ee25f62	0.44213396
16	0x3e193415	0.14961274
17	0x3f3c30ff	0.7351226
18	0x3efe98d6	0.4972598
19	0x3ec4ecf3	0.38462028
20	0x3eaa2cd8	0.33237338
21	0xbdeb3121	-0.1148398
22	0x3eb43c4f	0.35202262
23	0x3e758fb0	0.23980594
24	0x3ebb0e79	0.3653448
25	0x3f46a846	0.77600515
26	0x3f0684fd	0.52546674
27	0x3e19e3a7	0.15028249
28	0x3ecc124e	0.39857715
29	0xbe08faa4	-0.13376862
30	0xbddb28d8	-0.1070115
31	0xbc3b707b	-0.011440392
32	0x3e18112e	0.14850304
33	0x3e038584	0.12843901
34	0x3ee74c78	0.4517553
35	0x3ecac408	0.39602685
36	0x3ecc91f4	0.39955103
37	0x3eb3392e	0.35004562
38	0x3ec16622	0.37773234
39	0x3ea1da1a	0.3161171
40	0x3ec2ab64	0.38021386
41	0xbdf41422	-0.119179025
42	0xbe0ac92f	-0.13553308
43	0xbe33a42e	-0.17543098
44	0x3eca8a81	0.39558795
45	0xbe141d8a	-0.14464393
46	0xbd96ccf9	-0.07363314
47	0x3e93200f	0.28735396
48	0x3eb0f291	0.34560063
49	0xbe90e4de	-0.28299612
50	0x3ea46b48	0.321131
51	0x3ee02c5f	0.43783852
52	0x3f2ec53a	0.68269694
53	0x3ece4e5e	0.40294164
54	0x3e483aa7	0.19553624
55	0x3e9ef663	0.31047353
56	0xbe4e8b8b	-0.20170419
57	0xbcbfb8a9	-0.023403483
58	0x3ece7b0c	0.40328252
59	0x3eb4f6af	0.35344455
60	0x3e37a90e	0.17935583
61	0x3ec7d9ef	0.39033458
62	0xbd8ffb84	-0.07030395
63	0x3f2fea6b	0.6871707

conv3.lin.weight f4 [64, 128]
0	0xbd03f4a9	-0.032215748
1	0xbd287c39	-0.041134093
2	0xbce84f1f	-0.02835804
3	0xbdd551c7	-0.104159884
4	0x3d17dfb6	0.03707858
5	0x3d0aa090	0.03384453
6	0x3b41f1e1	0.0029593634
7	0x3d1e6910	0.038674414
8	0xbcdd20a7	-0.026993109
9	0x3d92e475	0.07172481
10	0xbd811bc2	-0.063041225
11	0x3c939af2	0.01801822
12	0xbd80ee0e	-0.06295405
13	0x3d7e4d9a	0.062085725
14	0x3d3b0cc8	0.045666486
15	0x3d3d6b9f	0.046245214
16	0xbcaef590	-0.021357328
17	0x3a113db9	0.00055405084
18	0xbd0e2c78	-0.034710377
19	0xbda97497	-0.08274191
20	0xbcbac4a4	-0.022798844
21	0xbd860b31	-0.06545103
22	0xbd1c7283	-0.038195144
23	0xbd0bd53d	-0.034138907
24	0xbd661f22	-0.056182034
25	0xbc186645	-0.009301727
26	0xbe139e15	-0.14415772
27	0xbdc9220b	-0.09820946
28	0x3d00cc7b	0.031445008
29	0x3cea80d9	0.028625892
30	0x3c89f7dc	0.016841821
31	0xbc9c1164	-0.019051261
32	0xbd2b0804	-0.04175569
33	0x3d8a7aac	0.06761679
34	0xbd2e8696	-0.04260882
35	0x3b7d606f	0.0038662215
36	0x3cab0da7	0.020880533
37	0x3ad33e9f	0.0016116685
38	0xbce0e001	-0.027450563
39	0xbcaed16c	-0.021340095
40	0x3ca3afbd	0.01998126
41	0x3c0703e3	0.008240673
42	0xbd1927a0	-0.037391305
43	0xbd660896	-0.056160532
44	0xbd9cf1d2	-0.07663311
45	0xbd8d47af	-0.06898438
46	0xbc37de37	-0.011222414
47	0xbd905828	-0.070480645
48	0xbc85a800	-0.01631546
49	0xbe0ad395	-0.13557275
50	0x3e093b6a	0.13401571
51	0xbd86b746	-0.065779254
52	0x3d329b51	0.043605153
53	0xbc5ee4a7	-0.01360432
54	0x3da1e88e	0.079056844
55	0xbd2d71a6	-0.04234471
56	0x3b8bd693	0.0042675226
57	0xbd54c518	-0.051945776
58	0xbd8c67a5	-0.06855706
59	0xbc4d723e	-0.0125394445
60	0xbd96f48c	-0.07370862
61	0x3acac273	0.0015469327
62	0xbd56e5c0	-0.0524652
63	0xbd30d5eb	-0.043172758
64	0xbd2abb34	-0.041682437
65	0xbd84b2eb	-0.064794384
66	0xbbcb221e	-0.0061991354
67	0xbcdecc24	-0.027196951
68	0x3d020946	0.031747125
69	0x3c302186	0.01075018
70	0x3c349288	0.011021264
71	0xbd2aa7f9	-0.041664097
72	0xbddc2387	-0.10748964
73	0xbd2b1a19	-0.041772936
74	0x3cdbcc93	0.026830947
75	0x3d9be1e7	0.07611447
76	0xbd85b8eb	-0.06529411
77	0xbd9a4fe2	-0.07534768
78	0xbd857534	-0.06516495
79	0x3d153fd6	0.03643783
80	0x3d6a7444	0.057239786
81	0x3db6375c	0.08897278
82	0xbda0c0f5	-0.07849304
83	0xbd7058d7	-0.058678474
84	0xb80253c6	-3.1072435e-05
85	0x3d151ae1	0.036402587
86	0x3ccbec92	0.024893079
87	0xbd85072c	-0.064955086
88	0x3cdad38e	0.026712205
89	0x3d6e8e20	0.05824101
90	0x3de7dbb1	0.113212
91	0xbb700d55	-0.003662904
92	0x3d3130e7	0.043259528
93	0x3d1258c9	0.035729203
94	0x3d3b05a2	0.04565967
95	0x3de815c8	0.113322794
96	0xbdc2b761	-0.09507633
97	0x3c9bb60c	0.019007705
98	0xbc5dfeb5	-0.013549496
99	0x3c3aef52	0.0114095975
100	0xbcb9bbfb	-0.022672644
101	0xbd8f0d57	-0.06984966
102	0x3c938ecb	0.018012425
103	0x3d151374	0.036395505
104	0x3ce8ab0e	0.028401878
105	0xbdca3ce7	-0.098748975
106	0xbc653263	-0.013989064
107	0x3d4b7eb2	0.049681373
108	0xbcbf1fba	-0.023330558
109	0xbdac5a71	-0.08415688
110	0xbcff6af7	-0.031178934
111	0xbc49a2a2	-0.012306841
112	0x3d205e94	0.039152697
113	0x3c9b0d69	0.018927293
114	0xbcc99fa8	-0.024612263
115	0xbab48a20	-0.0013774075
116	0x3d8c9e71	0.06866158
117	0x3e118d7b	0.14214127
118	0x3bf52289	0.0074809236
119	0xbb844be1	-0.004037366
120	0xbda20ff0	-0.07913196
121	0xbc66a335	-0.0140769975
122	0xbda86b83	-0.08223631
123	0xbd976cbc	-0.07393786
124	0xbcec6576	-0.028856974
125	0x3d4d8b4e	0.05018168
126	0xbb83f28f	-0.004026718
127	0xbb3428d9	-0.0027490167
128	0x3dff191f	0.12455963
129	0xbe2b9d21	-0.16759159
130	0x3dc9f132	0.098604575
131	0xbd9245df	-0.07142233
132	0xbdbff869	-0.09373552
133	0xbdbe6568	-0.092966855
134	0xbe65f1fa	-0.22455588
135	0xbe373567	-0.17891465
136	0x3cb07b0c	0.021543048
137	0xbe96bf7a	-0.2944296
138	0xbdb81892	-0.089890614
139	0xbcc15c1d	-0.023603493
140	0x3d8f8b04	0.07008937
141	0x3d6d2c9f	0.057903882
142	0xbe6cc49d	-0.23121877
143	0xbe01eed5	-0.12688763
144	0xbd2dd572	-0.042439885
145	0x3d1c2003	0.038116466
146	0x3e3d14a6	0.18464908
147	0xbcb98e66	-0.022650909
148	0xbd4f2cfb	-0.050580006
149	0xbe169902	-0.14706805
150	0xbeabfa2b	-0.335893
151	0xbe45dc70	-0.19322371
152	0xbd6a51cc	-0.057206914
153	0xbe0653ec	-0.13117951
154	0xbda16278	-0.078801095
155	0x3d644d7f	0.05573797
156	0xbc474e94	-0.012164731
157	0xbc71d785	-0.0147608565
158	0x3d136de6	0.03599348
159	0xbe4d734d	-0.20063515
160	0xbdce7c6f	-0.100823276
161	0x3d121247	0.035661962
162	0xbe660e52	-0.224664
163	0x3e17d822	0.14828542
164	0x3dc4bc4d	0.09606228
165	0x3e0e8abf	0.13920115
166	0x3d27b431	0.04094333
167	0xbdd3c49c	-0.10340235
168	0xbde98f4f	-0.11404287
169	0xbe1f755e	-0.15572116
170	0x3ddb4e2e	0.10708271
171	0xbd80dff5	-0.062927164
172	0x3d8c454d	0.068491556
173	0xbe52f66c	-0.20601815
174	0xbe6a36c8	-0.2287246
175	0xbc33a981	-0.010965706
176	0x3d8dc801	0.06922913
177	0xbd8d30ac	-0.06894049
178	0xbe8858dd	-0.26630297
179	0xbe71e408	-0.23622143
180	0xbd26d951	-0.040734593
181	0x3e48e245	0.19617565
182	0xbe43ffc1	-0.19140531
183	0x3dacf497	0.08445089
184	0xbcdaf30b	-0.02672722
185	0x3beed646	0.007288727
186	0x3cff81b3	0.031189775
187	0xbdd51e5c	-0.10406181
188	0xbdb4a598	-0.08820647
189	0xbe1d149b	-0.15339892
190	0x3da14e06	0.0787621
191	0xbde1b9b0	-0.11021745
192	0x3e090252	0.13379791
193	0x3ce83570	0.028345793
194	0xbd88bf61	-0.06677128
195	0x3c660083	0.014038208
196	0x3dba769a	0.09104653
197	0x3d65ff31	0.056151573
198	0xbca19427	-0.019723965
199	0xbcb0e54b	-0.02159371
200	0x3e577a77	0.2104281
201	0xbb68b839	-0.0035510196
202	0xbd1f4ac2	-0.038889654
203	0xbe732b54	-0.23746997
204	0xbdc3a8d3	-0.09553685
205	0x3dd57820	0.10423303
206	0x3dab71cb	0.08371314
207	0xbd0b764e	-0.03404837
208	0xbe4cc06d	-0.1999528
209	0xbdbd2e47	-0.09237342
210	0xbe200bf6	-0.15629563
211	0x3dce0813	0.10060134
212	0x3ad98db7	0.001659802
213	0xbe989980	-0.2980461
214	0xbe3a5a5d	-0.18198533
215	0x3db0f9ed	0.086414196
216	0x3c38f647	0.011289186
217	0xbe259a26	-0.16172084
218	0xbe6cd0bc	-0.23126501
219	0x3c0297ff	0.007970809
220	0xbde17d06	-0.110101745
221	0xbcc072cb	-0.023492238
222	0x3ddd68c6	0.108109996
223	0xbe2802bb	-0.16407292
224	0x3e4526a3	0.1925302
225	0x3de82406	0.11334996
226	0x3e16e7eb	0.14736907
227	0xbcb0c414	-0.021577872
228	0xbe2336bc	-0.15938848
229	0x3d830f0d	0.06399355
230	0x3d99109d	0.07473872
231	0x3d87297d	0.0659971
232	0xbdca666d	-0.098828174
233	0xbdf32f34	-0.11874238
234	0x3e1b3a52	0.15158966
235	0xbcbff4de	-0.023432191
236	0x3dfcd62f	0.1234554
237	0x3d700afc	0.058604226
238	0xbdb084a4	-0.08619049
239	0xbe4581ed	-0.19287844
240	0x3caaa2be	0.020829555
241	0x3e3278d5	0.17428906
242	0x3d7dc007	0.06195071
243	0xbe8727f7	-0.26397678
244	0x3d0bb4cc	0.03410797
245	0xbe4cfb46	-0.20017728
246	0x3de6bc14	0.11266342
247	0x3e09d8fb	0.13461678
248	0xbe3a7797	-0.18209682
249	0x3d4161d7	0.047212448
250	0x3de7d914	0.11320701
251	0x3c5e1070	0.013553724
252	0x3da5847a	0.080819085
253	0xbe855dbd	-0.2604808
254	0xbcf4cd42	-0.02988303
255	0xbdbe83c1	-0.09302474
